checkpoint.pth (torch_old, 28417 bytes, 6 tensors)

fc1.weight f4 [64, 37]
0.20212243 -0.053155012 -0.5694161 -0.4078806 -0.9347993 -0.04445622 0.043489575 0.07080923
0.07206385 0.11155112 -0.23508562 0.1646787 -0.19608837 -0.1147213 0.13339025 0.10042911
-0.25133198 0.07680274 -0.1129625 -0.3463208 0.10911559 0.028849173 -0.04358731 0.17216451
0.049512524 -0.114356846 0.12789266 -0.06560511 -0.014250562 0.21969064 -0.10172452 0.021693405
-0.073485725 0.08678914 -0.038202763 0.0074401023 -0.010440717 0.10927364 0.09331394 0.18741181
0.09209951 0.08461463 0.006577114 -0.10808695 0.082165696 -0.20879118 -0.20307533 0.17658976
-0.07588923 0.0695892 0.0016744536 -0.049288295 0.1880534 0.08415863 -0.02088955 0.012289529
-0.22468655 -0.049781684 0.06473296 -0.16479293 0.011886403 0.019954115 0.061870694 0.1287133
-0.0055149407 -0.14850542 -0.23321739 0.13729945 0.20981438 0.19731201 -0.06812089 -0.047161464
-0.0810788 -0.00862419 0.004971013 0.22020684 0.10908931 -0.01353444 -0.0005033031 -0.55086446
0.18203524 0.2295104 -0.023936521 -0.39994758 0.043921646 -0.07633141 0.015166664 -0.05221051
-0.049513955 -0.09016307 0.09678078 0.070570976 -0.02668675 0.21928151 -0.1822156 0.024030337
-0.010946519 0.052855354 -0.023603495 -0.47076628 0.0734258 0.2684446 0.106563434 -0.27243322
-0.37523675 0.07879053 -0.02990765 -0.14387147 -0.0010609579 -0.047015622 -0.00899769 0.19222134
-0.1650844 0.08620715 -0.029622309 -0.26089713 -0.013174036 -0.12549268 0.08674604 -0.0745842
0.29547942 -0.041712098 -0.11286009 -0.07871143 0.02400694 -0.07930497 0.007261695 -0.26998216
-0.07745827 -0.20516834 -0.051540315 0.14669792 -0.5341486 0.057767496 -0.092006646 -0.24222142
0.07039942 -0.15730739 -0.25115395 0.26407972 0.2974502 0.15149716 0.098440476 -0.4883245
-0.18352656 -0.42233026 0.010809209 0.0058537154 -0.13444068 -0.08058144 -0.15726599 -0.12793435
-0.022540204 0.041624133 0.09218015 0.051858276 -0.007138575 -0.07110668 0.30999362 -0.49785993
-0.3826488 -0.38121542 -1.6513945 -0.06808353 -0.02397974 -0.006398915 -0.0029082727 0.03928355
-0.07375783 0.060381692 0.0035303158 0.14747708 0.23696439 0.083954886 0.013243553 0.033044707
0.02873845 0.0016383077 0.07417101 -0.007184237 0.08729915 0.09153662 -0.03142374 0.015171959
0.012991588 -0.012496887 -0.0005687238 0.04158603 -0.0028838078 0.07788409 0.34673947 -0.41920564
-0.25908634 -0.5523194 -1.850038 -0.050940998 -0.0016024971 -0.031739917 -0.020809494 -0.016594829
-0.0014457381 -0.024183627 -0.0031870618 0.06967644 0.077775285 0.081523664 0.059423253 0.16599816
0.1593189 0.078028716 -0.094811894 0.15309735 0.14131255 0.18169707 0.24033275 -0.09498027
0.03518304 0.059261788 0.17962605 0.18671474 0.0041463817 0.008322555 -0.036663637 0.22013102
-0.2502601 0.0278156 -0.39365444 -0.260614 0.030873897 0.025139662 -0.17018498 0.20600598
-0.0033803738 0.13965623 -0.02539915 0.08658327 0.30956057 -0.21604761 -0.024275485 0.014866587
0.096773334 -0.122179866 -0.11305192 -0.045311093 0.101630285 -0.11125998 0.243222 -0.33052722
-0.07171683 0.03730452 0.021689465 -0.03674771 -0.1772321 -0.064902365 0.040290907 0.078351125
00000000: 2ff9 4e3e 12b9 59bd 41c5 11bf bad5 d0be
00000010: 024f 6fbf ba17 36bd 2022 323d 6e04 913d
00000020: 3696 933d ea74 e43d 49ba 70be 88a1 283e
00000030: 64cb 48be 00f3 eabd 7497 083e c7ad cd3d
00000040: 96ae 80be c14a 9d3d e258 e7bd f650 b1be
00000050: ff77 df3d 1a55 ec3c 9b88 32bd e54b 303e
00000060: a5cd 4a3d ec33 eabd 4bf6 023e f95b 86bd
00000070: 307b 69bc 95f6 603e f254 d0bd 5eb6 b13c
00000080: af7f 96bd 81be b13d 807a 1cbd 1acc f33b
00000090: 8b0f 2bbc dcca df3d 611b bf3d e2e8 3f3e
000000a0: ab9e bc3d 6f4a ad3d d584 d73b b15c ddbd
000000b0: 7d46 a83d 5bcd 55be fbf2 4fbe f2d3 343e
000000c0: d06b 9bbd c884 8e3d 5779 db3a 86e2 49bd
000000d0: 1291 403e 5c5b ac3d 9020 abbc 055a 493c
000000e0: 3b14 66be e1e7 4bbd b792 843d 7abf 28be
000000f0: 30bf 423c d076 a33c 206c 7d3d 6bcd 033e
00000100: adb6 b4bb ce11 18be 8ad0 6ebe 3a98 0c3e
00000110: 95d9 563e 290c 4a3e f782 8bbd 612c 41bd
00000120: a40c a6bd 7a4c 0dbc e1e3 a23b e77d 613e
00000130: 376a df3d 8ebf 5dbc 19f0 03ba 7405 0dbf
00000140: 7267 3a3e c604 6b3e 8616 c4bc eec5 ccbe
00000150: 2fe7 333d a453 9cbd 997d 783c b0da 55bd
00000160: 25cf 4abd 6aa7 b8bd 0035 c63d 8487 903d
00000170: 2c9e dabc 558b 603e ba96 3abe 45db c43c
00000180: 0759 33bc db7e 583d 1e5c c1bc 4708 f1be
00000190: 4460 963d 9271 893e ee3d da3d 5e7c 8bbe
000001a0: 081f c0be ee5c a13d e300 f5bc 0b53 13be
000001b0: d70f 8bba 7493 40bd 0c6b 13bc acd5 443e
000001c0: e30b 29be 608d b03d 7caa f2bc 4f94 85be
000001d0: e9d7 57bc 2781 00be e8a7 b13d 9abf 98bd
000001e0: 1449 973e 4eda 2abd 3123 e7bd 7533 a1bd
000001f0: 34aa c43c a56a a2bd 83f3 ed3b 1a3b 8abe
00000200: 71a2 9ebd a617 52be f01b 53bd fb37 163e
00000210: f6bd 08bf 9c9d 6c3d fb6d bcbd e408 78be
00000220: 922d 903d 3015 21be 4097 80be 7535 873e
00000230: 654b 983e 1222 1b3e 299b c93d ab05 fabe
00000240: 63ee 3bbe ac3b d8be 1c19 313c 86d0 bf3b
00000250: d1aa 09be e207 a5bd 560a 21be 3901 03be
00000260: 3ca6 b8bc 117e 2a3d f2c8 bc3d 5869 543d
00000270: b5ea e9bb 61a0 91bd 7cb7 9e3e 7fe7 febe
00000280: 8bea c3be ab2e c3be e560 d3bf 616f 8bbd
00000290: 2971 c4bc fdad d1bb b898 3ebb cae7 203d
000002a0: 580e 97bd cb52 773d df5c 673b 3b04 173e
000002b0: cba6 723e 8af0 ab3d 7dfb 583c e359 073d
000002c0: e66c eb3c 7cbc d63a f8e6 973d bf69 ebbb
000002d0: e6c9 b23d 8d77 bb3d 2eb6 00bd cf93 783c
000002e0: abda 543c bebf 4cbc 6816 15ba 1d56 2a3d
000002f0: 44fe 3cbb b281 9f3d d687 b13e 1fa2 d6be
00000300: f7a6 84be ce64 0dbf 0cce ecbf 82a7 50bd
00000310: e10a d2ba b701 02bd ac78 aabc e1f1 87bc
00000320: ec7e bdba be1c c6bc 06de 50bb 85b2 8e3d
00000330: a648 9f3d e1f5 a63d cc65 733d 6cfb 293e
00000340: 7e24 233e 85cd 9f3d bd2c c2bd 8dc5 1c3e
00000350: 3db4 103e cc0e 3a3e ca19 763e 0485 c2bd
00000360: 171c 103d 7dbc 723d e4ef 373e 2632 3f3e
00000370: 5fde 873b 535b 083c 9c2c 16bd 076a 613e
00000380: 1822 80be 8bdd e33c 138d c9be 336f 85be
00000390: 41eb fc3c b1f1 cd3c f944 2ebe 3bf3 523e
000003a0: 4389 5dbb 0b02 0f3e e111 d0bc 9252 b13d
000003b0: b97e 9e3e 963b 5dbe 62dd c6bc fc92 733c
000003c0: 1931 c63d 7039 fabd c487 e7bd 2098 39bd
000003d0: 8a23 d03d 46dc e3bd 300f 793e dd3a a9be
000003e0: 46e0 92bd a0cc 183d 1bae b13c c484 16bd
000003f0: 557c 35be 88eb 84bd 1408 253d 8e76 a03d

fc1.bias f4 [64]
0.107244894 0.042338993 -0.15073495 -0.09631099 0.1658897 -0.012782882 -0.11298264 0.05774524
0.01465686 -0.226655 0.12774904 0.22657098 0.11304126 0.022790622 -0.04481121 -0.019527063
-0.06988397 0.014011971 -0.018226955 -0.13736397 -0.109838516 0.006730261 -0.002059248 -0.08851636
-0.1110062 0.14492626 -0.055691052 -0.05640555 0.24078922 0.08437834 -0.10680764 -0.20381218
0.20271757 -0.057034574 -0.2341483 -0.033668485 -0.05836474 0.037004877 -0.11317096 -0.03070175
-0.06353493 0.009757193 -0.01308033 0.17100205 0.0039058193 -0.09504842 -0.0007107093 -0.23596884
-0.047420688 0.10562007 -0.1391655 0.06793477 0.044872135 -0.12096669 -0.20456839 -0.02412251
0.08928791 -0.04795939 -0.061632946 -0.14950716 0.03562592 0.068050556 0.116182916 0.045360867
00000000: 36a3 db3d a76b 2d3d 435a 1abe b23e c5bd
00000010: fdde 293e 4b6f 51bc 7163 e7bd 4686 6c3d
00000020: 5423 703c 4018 68be a5d0 023e 3902 683e
00000030: 2d82 e73d 66b3 ba3c f68b 37bd 38f7 9fbc
00000040: 541f 8fbd 7792 653c b250 95bc 24a9 0cbe
00000050: 04f3 e0bd 8589 dc3b 73f4 06bb 1148 b5bd
00000060: 3857 e3bd 8d67 143e 4d1c 64bd 8209 67bd
00000070: 7391 763e 8dce ac3d f7bd dabd 24b4 50be
00000080: 3295 4f3e 169d 69bd 92c4 6fbe f7e7 09bd
00000090: de0f 6fbd 6d92 173d 2dc6 e7bd 3d82 fbbc
000000a0: 9a1e 82bd a2dc 1f3c e14e 56bc 291b 2f3e
000000b0: c6f8 7f3b bfa8 c2bd e54e 3aba d1a1 71be
000000c0: 323c 42bd 564f d83d 6781 0ebe 6221 8b3d
000000d0: d8cb 373d 62bd f7bd 607a 51be 929c c5bc
000000e0: 94dc b63d 1171 44bd d472 7cbd 6818 19be
000000f0: 7cec 113d 175e 8b3d 4ff1 ed3d 51cc 393d

fc2.weight f4 [64, 64]
-0.07385974 0.0682372 -0.028643504 0.20181616 0.15769696 -0.011639304 -0.38416976 0.023377543
0.0729456 -0.36991057 -0.07935608 -0.051026203 -0.456151 0.1714602 -0.5660167 0.019326169
0.040348865 -0.14746487 0.04843862 -0.102348655 -0.012778307 -0.15204117 -0.26776025 0.0014468657
-0.14913219 -0.2548329 0.1861384 -0.019669065 -0.1141663 -0.27980408 -0.3381128 -0.029764004
0.03732385 0.08538645 -0.17730431 0.008110153 -0.10028153 -0.13087627 0.19993432 -0.16948624
-0.43156517 0.0054806047 0.092194825 -0.09864297 0.06450212 -0.27751234 -0.14530863 0.09290757
-0.047722995 0.0104819285 -0.110998034 -0.08247376 -0.10839973 0.09208355 0.11364743 -0.0061329743
-0.059001893 -0.29591966 -0.2217263 0.1985936 0.02736044 -0.0883991 -0.34532976 -0.14648333
0.025592024 0.11732723 -0.5051858 0.17713007 -0.12742153 0.25995058 0.06349686 0.0068271044
0.1279467 0.06462001 0.021926885 0.2484536 -0.063148096 0.14512421 -0.031279564 0.12057608
0.12293027 0.12666894 -0.13735415 -0.123189196 0.029317534 0.052823927 0.10784108 -0.04918967
0.047786564 0.2490923 -0.12493732 0.121813536 0.23572472 0.0766673 -0.3466372 -0.2133971
0.14813687 -0.088053934 -0.05393386 -0.27823213 -0.057206485 0.27111217 -0.028835747 -0.14096777
0.121969394 -0.35108024 -0.0038166207 -0.016336508 -0.19758013 0.0635567 -0.15379977 -0.028020343
0.025792323 -0.084457204 0.08804443 0.059555132 0.08909237 -0.048159525 0.11312011 0.013936985
0.073661335 -0.047392327 0.22047035 0.055599853 -0.06724193 0.11948748 0.05528626 0.2024547
-0.13494873 -0.14243619 0.070318155 -0.08329317 0.52721953 -0.12641798 -0.016578509 0.00083870377
0.36009124 -0.07917078 -0.03271662 0.037310295 -0.033729717 0.26364455 -0.028574456 0.0044019795
-0.008471663 0.14492528 0.013991221 -0.11723976 -0.17907481 0.13196345 -0.047394592 0.12759946
-0.046612974 0.20163193 0.3327341 0.34328958 0.022723442 0.14480746 -0.24748379 0.0031682288
0.018334659 0.12505454 -0.078308225 0.06649992 0.0657803 -0.098708235 0.13682991 -0.026716786
0.1818675 -0.44347 0.051222365 -0.057800487 0.06701075 -0.046838026 0.058383204 -0.014204111
0.16846035 0.00784259 -0.01171102 -0.100850545 -0.09766513 0.007617792 -0.094369255 -0.02429091
0.15297464 -0.11794682 0.20692202 0.18493477 -0.0033610654 0.17405124 0.09256067 0.11593812
-0.10037866 -0.015944581 -0.086543664 -0.21250065 0.0204928 0.037431046 -0.00923464 0.0074270065
-0.08026591 -0.1622458 0.025881918 0.17531519 -0.18571083 0.06285293 -0.08430437 -0.08584756
-0.24745221 -0.044235017 0.055284485 -0.2656467 -0.12752879 -0.125972 0.07089913 0.14732975
0.011396826 0.0068030152 0.25749746 0.23343466 0.17963696 -0.058069587 -0.13104518 0.034352534
-0.15554008 -0.109857894 0.038497306 0.122979514 -0.08152942 0.18252939 0.1966602 0.015620906
0.11923619 -0.08009858 -0.10178852 -0.16997886 0.10532794 0.063936934 0.00856552 -0.045902748
-0.029840808 -0.021911073 -0.16355194 -0.07540228 0.008975568 -0.079121456 -0.08565833 -0.07835526
0.124655575 -0.16342802 -0.0011913496 0.21577106 -0.14848724 0.030977182 -0.24854451 -0.17376503
00000000: c643 97bd f2bf 8b3d c8a5 eabc e5a8 4e3e
00000010: 507b 213e c8b2 3ebc e6b1 c4be 4382 bf3c
00000020: 8164 953d eb64 bdbe 7185 a2bd da00 51bd
00000030: a08c e9be 4393 2f3e 78e6 10bf ea51 9e3c
00000040: da44 253d 0801 17be 9367 463d 2c9c d1bd
00000050: 1b5c 51bc aeb0 1bbe df17 89be c2a4 bd3a
00000060: 1cb6 18be 7579 82be 119b 3e3e 0521 a1bc
00000070: 05d0 e9bd 7b42 8fbe 1f1d adbe a4d3 f3bc
00000080: e5e0 183d 17df ae3d 438f 35be 72e0 043c
00000090: 6760 cdbd 6e04 06be 95bb 4c3e cd8d 2dbe
000000a0: 1cf6 dcbe a596 b33b a4d0 bc3d 5305 cabd
000000b0: b019 843d 1916 8ebe c9cb 14be 5346 be3d
000000c0: 3079 43bd 65bc 2b3c f052 e3bd 01e8 a8bd
000000d0: ad00 debd 4d96 bc3d fcbf e83d 1ef7 c8bb
000000e0: f8ab 71bd c882 97be 380c 63be 1f5c 4b3e
000000f0: 0023 e03c 960a b5bd 10cf b0be baff 15be
00000100: 5da6 d13c 4249 f03d db53 01bf 9661 353e
00000110: ca7a 02be 3e18 853e a40a 823d e7b5 df3b
00000120: 7604 033e 7f57 843d 03a0 b33c 9f6a 7e3e
00000130: ca53 81bd 719b 143e 001f 00bd 98f0 f63d
00000140: dec2 fb3d 81b5 013e 91a6 0cbe 9e4a fcbd
00000150: 532b f03c e75d 583d c9db dc3d 1b7b 49bd
00000160: d8bb 433d 0d12 7f3e 23df ffbd 6079 f93d
00000170: d261 713e bf03 9d3d 6e7a b1be c584 5abe
00000180: 31b1 173e 9f55 b4bd c0e9 5cbd 7174 8ebe
00000190: 5951 6abd 37cf 8a3e f238 ecbc db59 10be
000001a0: 17cb f93d cac0 b3be 4520 7abb 24d4 85bc
000001b0: 7252 4abe 042a 823d b07d 1dbe eb8a e5bc
000001c0: 6c4a d33c e6f7 acbd a350 b43d 15f0 733d
000001d0: 0f76 b63d ec42 45bd 84ab e73d f457 643c
000001e0: c1db 963d 751e 42bd fbc2 613e acbc 633d
000001f0: 23b6 89bd dab5 f43d d873 623d 4950 4f3e
00000200: 0030 0abe cbda 11be f702 903d 9c95 aabd
00000210: dcf7 063f b773 01be a7cf 87bc 75dc 5b3a
00000220: e15d b83e 4a24 a2bd dd01 06bd aed2 183d
00000230: 2c28 0abd 6bfc 863e fa14 eabc 7b3e 903b
00000240: bbcc 0abc 4b67 143e 6f3b 653c 661b f0bd
00000250: 635f 37be 6d21 073e d520 42bd 6fa9 023e
00000260: 3fed 3ebd 9a78 4e3e 205c aa3e a7c3 af3e
00000270: 8326 ba3c 6848 143e 646c 7dbe 0fa2 4f3b
00000280: 9132 963c 4c0e 003e 1060 a0bd 1c31 883d
00000290: d2b7 863d 8b27 cabd 241d 0c3e 29dd dabc
000002a0: 793b 3a3e 800e e3be 8bce 513d 34c0 6cbd
000002b0: ef3c 893d 3bd9 3fbd 3a23 6f3d 5cb8 68bc
000002c0: df80 2c3e 357e 003c 94df 3fbc bb8a cebd
000002d0: a804 c8bd ac9e f93b ab44 c1bd bbfd c6bc
000002e0: 62a5 1c3e 1a8e f1bd 5ee3 533e 8a5f 3d3e
000002f0: 5245 5cbb 7d3a 323e 7390 bd3d f770 ed3d
00000300: 5493 cdbd 369e 82bc ce3d b1bd c599 59be
00000310: 84e0 a73c 4c51 193d e34c 17bc 3f5e f33b
00000320: 7462 a4bd c323 26be 5106 d43c d385 333e
00000330: fb2a 3ebe 09b9 803d c5a7 acbd d8d0 afbd
00000340: 1d64 7dbe c72f 35bd fc71 623d d802 88be
00000350: e896 02be cefe 00be 9033 913d 9cdd 163e
00000360: c1b9 3a3c d4eb de3b b5d6 833e 7f09 6f3e
00000370: c0f2 373e 60da 6dbd b530 06be 3eb5 0c3d
00000380: e645 1fbe 2dfd e0bd 5aaf 1d3d afdc fb3d
00000390: e6f8 a6bd fce8 3a3e 4b61 493e d4ee 7f3c
000003a0: 1b32 f43d b90a a4bd 8076 d0bd f00e 2ebe
000003b0: 2db6 d73d 5ef1 823d 6556 0c3c 8504 3cbd
000003c0: b674 f4bc da7e b3bc 297a 27be 836c 9abd
000003d0: 430e 133c 6e0a a2bd a26d afbd b978 a0bd
000003e0: 6c4b ff3d ad59 27be 0f27 9cba 17f3 5c3e
000003f0: 0a0d 18be dcc3 fd3c 7482 7ebe 76ef 31be

fc2.bias f4 [64]
-0.12916696 0.076073125 0.08696887 0.007013214 0.105652556 -0.26970333 -0.026202574 0.011837678
0.21100084 0.4332226 -0.10588335 0.24127676 0.053961188 -0.031173972 -0.17284012 0.21554907
-0.053794127 -0.14046419 -0.10540606 0.15701759 0.09932952 0.48703057 -0.16255514 -0.041286442
-0.03873967 -0.15586975 0.07302844 -0.06973029 -0.08862091 0.10699647 0.107808985 0.09458445
-0.10047339 0.22476192 0.22305861 -0.009786843 0.00058624684 -0.15877911 0.33029872 -0.004315742
-0.1367185 0.49833614 0.19095936 -0.014070096 0.025406705 -0.15548928 -0.0027610033 -0.110847995
0.0481193 0.057782434 -0.15394498 0.36294037 0.015160904 -0.07293554 0.31017783 -0.05317169
-0.14012876 -0.10857562 -0.029235343 -0.12939067 0.10172666 0.17759402 0.08931539 -0.06483783
00000000: 5844 04be 3acc 9b3d bc1c b23d 1acf e53b
00000010: 5e60 d83d 8e16 8abe c8a6 d6bc d2f2 413c
00000020: 9b10 583e 5acf dd3e 5fd9 d8bd 4111 773e
00000030: 6806 5d3d 8f60 ffbc 00fd 30be e5b8 5c3e
00000040: 3b57 5cbd d8d5 0fbe 22df d7bd 38c9 203e
00000050: 466d cb3d 125c f93e db74 26be f91b 29bd
00000060: 7dad 1ebd 529c 1fbe ef8f 953d c1ce 8ebd
00000070: e17e b5bd f720 db3d f5ca dc3d 7eb5 c13d
00000080: fec4 cdbd fd27 663e 7a69 643e ff58 20bc
00000090: 5cae 193a fe96 22be ea1c a93e 116b 8dbb
000000a0: efff 0bbe ea25 ff3e da8a 433e 4386 66bc
000000b0: b921 d03c 9538 1fbe f3f1 34bb 4604 e3bd
000000c0: be18 453d 46ad 6c3d c1a3 1dbe 52d3 b93e
000000d0: 7165 783c 3a5f 95bd a1cf 9e3e 8fca 59bd
000000e0: ea7d 0fbe e55c debd f57e efbc fd7e 04be
000000f0: 1156 d03d 35db 353e fdea b63d b2c9 84bd

fc3.weight f4 [4, 64]
-0.017416578 0.1999395 0.14162968 0.083597615 0.285194 -0.2105682 0.16945995 -0.56047565
0.10257691 0.13528554 -0.30964726 0.24486612 0.14646135 -0.011723914 -0.4300418 0.13688147
0.037427 0.29394022 -0.029369328 0.21464238 0.16650198 0.1531538 -0.04722188 -0.019000752
0.033258755 -0.2613372 -0.104985476 0.011840395 0.38567755 0.34022072 0.09950006 0.10526712
0.08877902 0.1624135 0.09440279 0.4571644 0.3788916 -0.19093603 0.3388374 0.32108304
0.08211222 0.15823235 0.15254942 0.15873548 -0.10150752 0.04648344 0.21359381 0.4377252
-0.1749898 0.22294903 -0.09514775 0.15388818 0.21404986 -0.27791482 0.12361788 0.25497106
-0.33573332 -0.007900558 -0.13263713 -0.117234826 0.32018694 0.13486896 0.08356057 -0.11869258
0.4811867 0.21487105 0.13526747 -0.16161299 0.26007193 -0.031092556 -0.026674071 0.09612407
0.056742217 0.11681945 -0.1987992 0.18702294 0.037485257 0.1460623 -0.30657062 0.19287567
-0.1589185 -0.05239559 -0.06657898 0.176383 0.08199142 0.19814347 -0.09651229 0.10284584
0.104453586 -0.21127431 0.14418042 0.026423736 0.19396825 0.389977 0.33472577 0.116384625
0.20264392 0.09095959 0.11827484 0.17227909 0.36323643 -0.41278726 0.26975214 0.37802443
0.10198485 0.15513675 0.08379648 0.2772798 0.054335687 -0.06321221 0.25112078 0.12365161
-0.17411394 0.11455568 -0.18468568 0.081089325 0.2800264 -0.1527509 0.17825139 0.32573494
-0.08933642 -0.0015609352 -0.090768985 0.054769445 0.26599678 -0.05299139 0.14854272 -0.11085159
-0.21115476 0.19325444 0.2808704 0.12013391 0.50824475 0.016994119 0.41820014 -0.13804057
0.05422172 0.15484886 -0.30310366 0.17170818 0.15477747 -0.49465427 -0.21131743 0.21899793
0.087802425 -0.21293963 -0.04524612 0.012046076 0.111662656 0.19597998 -0.21123831 0.15443476
0.3124921 -0.0823459 0.12851417 -0.25678924 0.2969397 0.76039606 0.06061366 0.023761194
-0.21334377 0.12661001 0.16730642 0.31795684 0.23225503 -0.34635338 0.2803611 -0.019056153
0.06988886 0.1847468 0.007218936 0.3930067 0.24904819 -0.04344056 0.34176937 0.48068377
0.05439327 0.06087616 -0.30649945 0.20876408 0.07387736 -0.009437905 0.12959108 0.16618036
-0.04237455 0.31768957 -0.0037595774 0.20216438 -0.03177731 0.069531925 0.011507742 -0.41101462
-0.0023400106 0.20273918 0.019731086 -0.18502209 0.22100905 0.044520576 0.11132724 -0.09698878
0.1362593 0.20159748 -0.0022019413 0.0921666 0.19027314 0.15676475 -0.15126872 0.21662764
0.16088897 0.0126997335 0.07917042 0.1485083 0.17165871 0.217177 -0.3468166 0.31257257
0.12472795 -0.21701297 0.19464742 0.33477724 0.41585833 0.33333904 0.45508355 0.07011033
-0.3156897 0.15943018 0.017515536 0.43347594 0.078490935 -0.14392987 0.23182699 0.50823706
-0.092759274 0.21551868 0.16559753 -0.068213224 0.45928258 -0.15860891 0.20028767 0.20456289
-0.02424972 -0.08108984 -0.25215477 0.1420497 0.09049388 -0.1788984 0.12402293 0.57716006
-0.36110374 -0.17834114 -0.27612165 -0.43726 0.16232009 0.07653777 -0.29863203 0.0118895145
00000000: 36ad 8ebc f1bc 4c3e 5f07 113e 3a35 ab3d
00000010: f304 923e 319f 57be e986 2d3e 557b 0fbf
00000020: d813 d23d 4b88 0a3e 168a 9ebe 2fbe 7a3e
00000030: f7f9 153e a915 40bc 702e dcbe a82a 0c3e
00000040: 0e4d 193d 557f 963e f297 f0bc 36cb 5b3e
00000050: 7f7f 2a3e 5ad4 1c3e bb6b 41bd 77a7 9bbc
00000060: 553a 083d fdcd 85be a002 d7bd 37fe 413c
00000070: 8777 c53e 6931 ae3e b0c6 cb3d 4a96 d73d
00000080: c6d1 b53d b94f 263e 4056 c13d 7411 ea3e
00000090: 14fe c13e bc84 43be 187c ad3e ff64 a43e
000000a0: 742a a83d a907 223e ea35 1c3e 8e8b 223e
000000b0: 2de3 cfbd 6b65 3e3d 56b8 5a3e 841d e03e
000000c0: 8730 33be c04c 643e d3dc c2bd dd94 1d3e
000000d0: e32f 5b3e da4a 8ebe 5f2b fd3d 918b 823e
000000e0: 3de5 abbe 5871 01bc 07d2 07be d018 f0bd
000000f0: 8bef a33e 171b 0a3e ce21 ab3d 1815 f3bd
00000100: 1a5e f63e 2807 5c3e 8e83 0a3e e07d 25be
00000110: 2628 853e d1b5 febc 9583 dabc b2dc c43d
00000120: 876a 683d 093f ef3d 0492 4bbe f182 3f3e
00000130: 248a 193d 5b91 153e d3f6 9cbe 3381 453e
00000140: 88bb 22be c29c 56bd 8f5a 88bd bf9d 343e
00000150: 1eeb a73d 1fe6 4a3e 3ca8 c5bd d7a0 d23d
00000160: c3eb d53d 4b58 58be 08a4 133e 9776 d83c
00000170: 9d9f 463e 11ab c73e 2d61 ab3e 105b ee3d
00000180: e381 4f3e 0649 ba3d 143a f23d ee69 303e
00000190: 20fa b93e da58 d3be f41c 8a3e 6b8c c13e
000001a0: 6fdd d03d 2bdc 1e3e 7d9d ab3d 9ef7 8d3e
000001b0: 198f 5e3d 6775 81bd e792 803e 0e3d fd3d
000001c0: ed4a 32be 2b9c ea3d 3e1e 3dbe 2912 a63d
000001d0: 9f5f 8f3e bb6a 1cbe 8887 363e bbc6 a63e
000001e0: 03f6 b6bd 4b98 ccba 17e5 b9bd ed55 603d
000001f0: bb30 883e 800d 59bd 951b 183e 2906 e3bd
00000200: f438 58be 7ee4 453e 3fce 8f3e c408 f63d
00000210: 541c 023f 4037 8b3c 541e d63e 825a 0dbe
00000220: 9817 5e3d b390 1e3e 6730 9bbe 45d4 2f3e
00000230: fc7d 1e3e 5343 fdbe 9963 58be fe40 603e
00000240: c2d1 b33d d90c 5abe ff53 39bd e85c 453c
00000250: 64af e43d faae 483e db4e 58be 2524 1e3e
00000260: f7fe 9f3e f8a4 a8bd 3899 033e e179 83be
00000270: 7b08 983e 51a9 423f 0746 783d d6a6 c23c
00000280: ca76 5abe 0ea6 013e 6052 2b3e 3dcb a23e
00000290: 43d4 6d3e 3b55 b1be 7d8b 8f3e a61b 9cbc
000002a0: e421 8f3d 442e 3d3e d38c ec3b 2d38 c93e
000002b0: 7d06 7f3e bbee 31bd 65fc ae3e 2f1c f63e
000002c0: 7acb 5e3d 4859 793d 7fed 9cbe 40c6 553e
000002d0: 034d 973d 71a1 1abc 86b3 043e 2f2b 2a3e
000002e0: f090 2dbd 35a8 a23e 3e63 76bb 2e04 4f3e
000002f0: ed28 02bd c166 8e3d f88a 3c3c 8270 d2be
00000300: dd5a 19bb dc9a 4f3e 16a3 a13c 6e76 3dbe
00000310: 3250 623e 355b 363d 89ff e33d 0ea2 c6bd
00000320: 8f87 0b3e 926f 4e3e 724e 10bb d8c1 bc3d
00000330: f6d6 423e f086 203e 30e6 1abe a3d3 5d3e
00000340: 14c0 243e 8b12 503c 1a24 a23d 8f12 183e
00000350: 4dc7 2f3e a663 5e3e f291 b1be 8309 a03e
00000360: 5e71 ff3d a638 5ebe a751 473e ec67 ab3e
00000370: 62eb d43e 6aab aa3e b600 e93e 0196 8f3d
00000380: 15a2 a1be aa41 233e be7c 8f3c 8ff0 dd3e
00000390: dbbf a03d 5a62 13be 0e64 6d3e d31b 023f
000003a0: 93f8 bdbd eeb0 5c3e 6692 293e 60b3 8bbd
000003b0: 1627 eb3e 606a 22be 3618 4d3e ef78 513e
000003c0: 59a7 c6bc 6e12 a6bd 6e1a 81be 7a75 113e
000003d0: db54 b93d 2431 37be bcff fd3d c3c0 133f
000003e0: 97e2 b8be 0f9f 36be d15f 8dbe 8be0 dfbe
000003f0: 3d37 263e d6bf 9c3d 4ce6 98be 3dcc 423c

fc3.bias f4 [4]
0.2760718 0.28209856 0.18045416 0.17417145
00000000: 4859 8d3e 396f 903e fac8 383e 005a 323e
