double-dqn-model-weights.pth (torch_old, 28417 bytes, 6 tensors)

fc1.weight f4 [64, 37]
0	0x3db07d78	0.08617681
1	0xbca76cef	-0.020437686
2	0xbe14daa9	-0.14536537
3	0xbe343b78	-0.1760081
4	0xbea2b776	-0.31780595
5	0x3dbb346b	0.09140857
6	0xbb428b74	-0.0029685171
7	0x3e0db565	0.13838728
8	0xbe1225ad	-0.14272185
9	0x3d507aea	0.05089847
10	0x3c23964c	0.009984564
11	0xbe22764c	-0.15865439
12	0xbe58903d	-0.21148773
13	0xbd9e4eee	-0.077298984
14	0xbe111433	-0.14167862
15	0xbe7227ba	-0.23647967
16	0x3d87240f	0.065986745
17	0x3d834034	0.0640873
18	0x3e664f2e	0.22491142
19	0xbe134d4c	-0.14384955
20	0x3c07b264	0.008282278
21	0x3d887bda	0.06664248
22	0xbd972281	-0.07379628
23	0x3df42075	0.11920253
24	0xbe2edf7e	-0.17077443
25	0xbc982dac	-0.018576466
26	0x3e4825d8	0.19545686
27	0xbe83db01	-0.25753024
28	0xbe5123a8	-0.20423758
29	0xbd731939	-0.059350226
30	0x3ce13b0f	0.027493982
31	0xbdb074c8	-0.08616024
32	0xbe3a4ad1	-0.18192603
33	0xbd1a57dc	-0.037681445
34	0x3c0fff6c	0.008788925
35	0xbe2bc22c	-0.1677329
36	0xbd8e87ae	-0.069594726
37	0x3d37b834	0.044853404
38	0x3e0be65f	0.13662098
39	0x3d64548b	0.05574469
40	0x3dbb83bc	0.09155986
41	0xbc6cf457	-0.014462552
42	0xbd5ce33e	-0.053927653
43	0xbdac7aed	-0.08421884
44	0xbd9193dc	-0.0710828
45	0xbd22ead5	-0.039774735
46	0x3e075c54	0.13218814
47	0x3d81f258	0.063450515
48	0xbda02317	-0.07819193
49	0x3ab8c61d	0.0014097128
50	0x3e40476e	0.18777248
51	0x3f1d1458	0.6135917
52	0x3d99db79	0.07512564
53	0x3c71df4f	0.014762714
54	0x3dd1cb9d	0.10243914
55	0xbcb9bc8d	-0.022672916
56	0x3f010818	0.50402975
57	0xbdf9ea11	-0.12202848
58	0xbd611bef	-0.05495828
59	0xbd506e74	-0.050886586
60	0x3d944683	0.072400115
61	0x3da04d0d	0.07827196
62	0x3e219524	0.15779549
63	0x3d86a1ae	0.06573807
64	0xbda661af	-0.081241004
65	0xbe707547	-0.23482238
66	0xbf0ae79a	-0.54259646
67	0xbd11b092	-0.03556878
68	0x3da71eb7	0.08160155
69	0x3e0908cf	0.13382266
70	0x3dcc42e6	0.09973697
71	0x3dd3580b	0.10319527
72	0xbbf01dee	-0.0073277866
73	0xbc42b079	-0.011882895
74	0x3e98e11c	0.29859245
75	0x3df0e6a4	0.11762741
76	0xbe867d17	-0.2626731
77	0xbe0c6b60	-0.13712835
78	0x3a2d5f42	0.0006613621
79	0xbeb43208	-0.3519442
80	0xbdab1cf9	-0.083551355
81	0x3c9d2299	0.019181537
82	0x3e583045	0.21112163
83	0xbeaba306	-0.33522815
84	0xbd9c0fa8	-0.07620174
85	0xbd078b64	-0.033091918
86	0xbba0d101	-0.0049077277
87	0xbdfd6f6a	-0.12374766
88	0x3e5ea072	0.21740893
89	0xbdc41294	-0.09573856
90	0xbe3fc257	-0.18726479
91	0x3dcf6d49	0.10128266
92	0x3ead5e01	0.33860782
93	0xbd93ffe1	-0.072265394
94	0xbef3c31e	-0.476098
95	0xbcf421b1	-0.029801222
96	0xbd1c44ef	-0.038151678
97	0x3e0a153e	0.13484666
98	0xbd961007	-0.07327276
99	0xbdf61a2d	-0.120167114
100	0x3e8c95ef	0.2745814
101	0xbce2c70a	-0.0276828
102	0xbe872e9c	-0.26402748
103	0x3da135fc	0.07871625
104	0xbe38677d	-0.18008228
105	0x3e29e6de	0.16591975
106	0xbe6f9277	-0.23395716
107	0xbeb1c191	-0.34717992
108	0xbe16c990	-0.14725327
109	0x3e34a387	0.17640506
110	0xbcc3652c	-0.023851953
111	0x3ed059c4	0.40693486
112	0xbe91d0d5	-0.2847964
113	0xbd9a10b9	-0.07522721
114	0x3d299775	0.041404206
115	0xbf5812cb	-0.84403676
116	0xbe031c9b	-0.12803881
117	0x3e0e2e7b	0.13884918
118	0x3df93b68	0.12169534
119	0x3dbcf55e	0.092264876
120	0x3dd0d60f	0.101970784
121	0x3b9497a0	0.0045346767
122	0x3c9cae55	0.019126097
123	0x3da8c7f9	0.08241267
124	0xbe1c93e6	-0.15290794
125	0xbc52d375	-0.012867798
126	0xbb8be69a	-0.004269433
127	0xbcf65ab5	-0.03007255
128	0x3c82418d	0.015900398
129	0xbe740e4a	-0.23833576
130	0xbe031240	-0.1279993
131	0x3e61d3ce	0.22053453
132	0xbdb7fe91	-0.089841016
133	0xbd4c18f4	-0.049828485
134	0x3dd5b5c4	0.1043506
135	0xbe328443	-0.17433266
136	0x3cc6a438	0.024248227
137	0xbd83ad3d	-0.06429527
138	0x3d6ab94a	0.05730561
139	0x3e87a035	0.26489416
140	0x3e3551d4	0.17706996
141	0x3d7b28be	0.06131815
142	0x3d9b6953	0.075884484
143	0x3dd4a69e	0.10383342
144	0xbb3e3b17	-0.002902692
145	0xbe7b12a4	-0.2451883
146	0x3d1f5aa3	0.038904797
147	0xbb667b2a	-0.0035168626
148	0xbd54d7cf	-0.051963624
149	0xbdd44fc0	-0.103667736
150	0x3abc1763	0.0014350232
151	0xbe64a1c2	-0.2232733
152	0xbd24cdaf	-0.040235218
153	0x3e926552	0.28592926
154	0x3e492eca	0.19646755
155	0xbe5240d5	-0.20532544
156	0xbc8c51be	-0.017128821
157	0xbe95d937	-0.29267284
158	0x3e548b17	0.20756184
159	0xbe08557b	-0.13313858
160	0x3a1ca953	0.0005976159
161	0xbe177753	-0.14791612
162	0xbeb0c209	-0.34523037
163	0x3c6e726f	0.01455365
164	0x3d8b193b	0.06791922
165	0xbc8dd317	-0.01731257
166	0x3d48318f	0.048875388
167	0x3edd46fd	0.43218222
168	0xbdf04d5d	-0.11733506
169	0x3dad11c2	0.08450653
170	0x3dc6c170	0.09704864
171	0x3e08909b	0.13336413
172	0x3ec75b71	0.38936952
173	0x3e8923d2	0.2678514
174	0x3b0a5ea6	0.0021113544
175	0xbd97abb1	-0.074057944
176	0xbe2998e8	-0.16562235
177	0xbe91dc97	-0.2848861
178	0x3d9507f1	0.07276905
179	0xbc9b6838	-0.018970594
180	0x3ddd6bc1	0.10811568
181	0x3d9ff60a	0.078106
182	0x3ed5525d	0.416644
183	0xbd145bf0	-0.03622049
184	0x3c86ceaf	0.016455976
185	0xbb9eaae0	-0.004842147
186	0xbc4af233	-0.012386846
187	0x3dee7d82	0.116450325
188	0xbc6a1c9d	-0.0142890485
189	0x3d95bc03	0.07311251
190	0x3ed50ee1	0.41612914
191	0xbc5a4293	-0.013321537
192	0xbe7bcf12	-0.2459071
193	0xbee219d7	-0.4416034
194	0xbfdfbd3e	-1.7479627
195	0x3d154dac	0.036451027
196	0x3b28f931	0.0025783295
197	0xbc05d880	-0.008169293
198	0xbca98745	-0.020694384
199	0xbda2dacf	-0.07951891
200	0x3d96e839	0.07368512
201	0x3d608723	0.054816376
202	0xbc8482d3	-0.016175663
203	0x3d8a0c43	0.0674062
204	0xbd1b7c24	-0.037960187
205	0x3e5bd05c	0.21466202
206	0x3bf2fbff	0.007415294
207	0x3e042dee	0.12908146
208	0x3da680ff	0.08130073
209	0x3dd5436e	0.10413252
210	0x3d342136	0.043976985
211	0x3c1b7bbf	0.009489953
212	0x3a0bc252	0.0005331385
213	0xbc650d5d	-0.013980237
214	0x3ca2d0a8	0.019874886
215	0x3e072193	0.13196401
216	0xbd9c07c4	-0.07618669
217	0xbc908a7d	-0.017644161
218	0x3d9c0aa0	0.07619214
219	0x3cac230d	0.021012807
220	0x3d094cc8	0.03352049
221	0xba08d8a8	-0.00052202726
222	0x3e8dd8d6	0.27704495
223	0x3bf620a0	0.0075112134
224	0xbe2e40dc	-0.1701693
225	0xbe2d7c99	-0.16942061
226	0xbf5261fe	-0.82180774
227	0xbe1f03bb	-0.15528767
228	0x3d62d097	0.055374708
229	0xbd2aff0d	-0.04174714
230	0x3e2e6a92	0.17032841
231	0x3da529e6	0.08064632
232	0x3c9205d4	0.017825045
233	0x3eadd063	0.3394805
234	0x3d5a2247	0.053255346
235	0xbcdf90fe	-0.027290817
236	0x3dd31b87	0.10307985
237	0xbe03bfb8	-0.12866104
238	0xbd151568	-0.036397368
239	0x3dcd5eb0	0.10027826
240	0x3da52fa2	0.08065726
241	0x3ed80f09	0.4219897
242	0x3d8f863e	0.070080265
243	0x3dacc0e6	0.0843523
244	0x3dc20488	0.094735205
245	0xbe7366de	-0.2376971
246	0x3d198063	0.037475955
247	0xbe36838d	-0.1782362
248	0x3d1a159f	0.037618276
249	0x3d2d7ef8	0.042357415
250	0xbc8cda16	-0.017193835
251	0xbd91f2e9	-0.071264096
252	0xbd92c519	-0.071665
253	0x3e2c2536	0.1681107
254	0x3e0c9f24	0.13732582
255	0xbe15ed08	-0.14641201

fc1.bias f4 [64]
0	0x3db0af86	0.086272284
1	0xbc532136	-0.012886336
2	0xbe311101	-0.17291643
3	0xbd5e76b0	-0.054312408
4	0x3e6dd779	0.23226728
5	0x3d54d85c	0.05196415
6	0xbc4a421f	-0.012344866
7	0x3cb3d927	0.021954132
8	0x3d3eaa3c	0.046549067
9	0xbe501535	-0.2032059
10	0x3de2598c	0.11052236
11	0x3e21d6b1	0.15804555
12	0x3dee9c2d	0.11650882
13	0x3d963954	0.07335153
14	0x3afc6927	0.0019257412
15	0xbcced8a1	-0.025249781
16	0xbcb977e0	-0.022640169
17	0x3c944f3b	0.018104186
18	0xbd562aad	-0.052286793
19	0xbe7508c9	-0.23929133
20	0xbdc93208	-0.09823996
21	0x3dea6409	0.114448614
22	0x3bae8b70	0.005326681
23	0xbe0a20c6	-0.13489065
24	0xbda2ae46	-0.07943396
25	0x3e4e3d5c	0.20140594
26	0x3da1126a	0.0786484
27	0xbe510c7a	-0.20414916
28	0x3e6752ca	0.22590175
29	0x3c63524a	0.0138746
30	0xbd6ab29e	-0.05729925
31	0xbdf74ee2	-0.120755926
32	0x3d955610	0.07291806
33	0x3ca05097	0.019569678
34	0xbdb005ba	-0.08594842
35	0x3cf60b5c	0.030034713
36	0xbdd09495	-0.1018459
37	0x3d0867bb	0.03330205
38	0xbd85201d	-0.06500266
39	0xbd844f2c	-0.06460413
40	0xbdabea77	-0.0839433
41	0xbd3202b4	-0.04345961
42	0xbd0a4db8	-0.033765525
43	0x3e1a5036	0.1506966
44	0xbd18c724	-0.03729929
45	0xbdcf1d72	-0.10113038
46	0x3d6aa6dc	0.057288036
47	0xbe3fd295	-0.18732674
48	0xbdebfc3d	-0.1152272
49	0x3d67c2cc	0.056582257
50	0xbdaf9765	-0.08573798
51	0x3e32a5c4	0.17446047
52	0xbce7ae54	-0.028281368
53	0xbdd1b29b	-0.102391444
54	0xbe56327b	-0.20917694
55	0x3d71543e	0.05891823
56	0x3d43966c	0.047750875
57	0x3cbe7f5c	0.023254089
58	0xbde400ee	-0.1113299
59	0xbe038811	-0.12844874
60	0xbdc5f67c	-0.09666154
61	0x3cda96e2	0.026683275
62	0xbcc9c4eb	-0.02463003
63	0x3d82afa2	0.063811556

fc2.weight f4 [64, 64]
0	0xbc9ba21d	-0.0189982
1	0x3cdb2c17	0.026754422
2	0xbcab7553	-0.020929968
3	0x3e369560	0.1783042
4	0xbcf1f3b3	-0.02953515
5	0xbf09c25a	-0.5381218
6	0xbdba381e	-0.09092735
7	0xbe259192	-0.16168812
8	0x3e63c6d5	0.22243817
9	0xbc6a3d25	-0.014296805
10	0xbe8c9226	-0.27455252
11	0xbf00b0b8	-0.5026965
12	0xbecceb56	-0.40023297
13	0x3e78a790	0.2428267
14	0xbe3f199a	-0.1866211
15	0xbef3760d	-0.47551003
16	0xbee554ec	-0.44791353
17	0xbdc4ebd4	-0.09615293
18	0xbe43df07	-0.19128047
19	0xbd9a153d	-0.07523582
20	0xbdb97f2a	-0.09057458
21	0xbeb44fa5	-0.35217014
22	0x3e16bc2e	0.14720222
23	0xbf151b8d	-0.58245164
24	0x3d20d494	0.03926523
25	0xbe7e5850	-0.24838376
26	0x3e8f1301	0.27944186
27	0xbc33c087	-0.010971195
28	0x3e81a547	0.2532141
29	0x3d77e86a	0.06052438
30	0x3d9ff8b6	0.0781111
31	0xbea278b7	-0.31732723
32	0x3c96450e	0.018343475
33	0xbedae790	-0.42754793
34	0xbec784cb	-0.389685
35	0xbe25d4e8	-0.16194499
36	0xbe469f8e	-0.19396803
37	0xbea67da3	-0.32517728
38	0xbdc84a54	-0.09779802
39	0xbe54ed64	-0.20793682
40	0xbf070170	-0.5273657
41	0x3d82b80d	0.06382761
42	0xbcb62b33	-0.022237396
43	0xbe8292cd	-0.25502625
44	0x3db66a49	0.08906991
45	0xbea8c612	-0.32963616
46	0xbe97b389	-0.29629162
47	0xbee76b59	-0.45199087
48	0xbf1d5e33	-0.6147186
49	0xbdbcbfc9	-0.092162676
50	0xbedc77ee	-0.4306025
51	0x3e1eea08	0.15518963
52	0xbf49675e	-0.7867335
53	0xbeb0b322	-0.34511667
54	0xbeb246d1	-0.34819654
55	0x3e111d59	0.14171351
56	0xbd8fea72	-0.07027139
57	0x3e03e3ea	0.12879911
58	0xbf1b65b9	-0.6070209
59	0x3e178b48	0.14799225
60	0xbdd642d7	-0.104619674
61	0x3e52912a	0.20563188
62	0xbe1c2db5	-0.15251811
63	0xbf290777	-0.66027015
64	0xbd25a9a2	-0.040444978
65	0x3decaf89	0.11556918
66	0x3dd2d95b	0.102953635
67	0x3dd5b01d	0.104339816
68	0x3e13d222	0.14435628
69	0x3e8ae9a1	0.2713137
70	0xbd5b6a5c	-0.05356823
71	0xbe151f05	-0.14562614
72	0x3ca254ee	0.019815888
73	0x3d20b5e6	0.039235972
74	0xbe282a7d	-0.16422458
75	0x3e36e0c4	0.17859179
76	0xbdc0dfe2	-0.09417702
77	0xbcf41faf	-0.029800264
78	0x3daa783a	0.08323713
79	0xbdf4933c	-0.11942145
80	0x3d2434b7	0.040089335
81	0x3d27f846	0.041008256
82	0x3dae9840	0.08525133
83	0x3dca7b91	0.0988685
84	0x3d195558	0.037434906
85	0x3dadbd75	0.08483402
86	0xbf02b079	-0.51050526
87	0x3d87e930	0.06636274
88	0x3db842cd	0.08997116
89	0xbdf7369e	-0.12070964
90	0xbdc08c6d	-0.09401784
91	0xbe276f97	-0.16351162
92	0x3ec46906	0.38361377
93	0xbdde988f	-0.10868942
94	0x3df26688	0.118359625
95	0xbe036059	-0.12829722
96	0xbe1dd1a6	-0.15412006
97	0xbe00b295	-0.12568124
98	0xbd840852	-0.064468995
99	0xbd3d0fd1	-0.04615766
100	0xbc97dbee	-0.018537488
101	0x3ea3f4b6	0.32022637
102	0x3e813d40	0.25242043
103	0xbd6b54e0	-0.05745399
104	0xbccfab34	-0.02535019
105	0x3d47799a	0.048699953
106	0x3dcc01e6	0.099612996
107	0x3b8c2af8	0.004277583
108	0xbe5e3701	-0.2170067
109	0xbd6b9cac	-0.05752246
110	0xbe41d14c	-0.18927497
111	0xbd067693	-0.032827925
112	0xbe416b7e	-0.18888661
113	0xbd252d89	-0.04032663
114	0x3d206166	0.039155386
115	0x3e9fc604	0.3120576
116	0x3b398164	0.0028305883
117	0xbdde1c16	-0.10845201
118	0x3d250829	0.040290985
119	0x3c1d5f97	0.00960531
120	0xbe08f35e	-0.13374087
121	0xbdb92fd8	-0.090423286
122	0x3e87d482	0.26529318
123	0x3be1223b	0.0068705357
124	0xbdc8e993	-0.09810176
125	0x3cf38de0	0.029730737
126	0xbdf59a02	-0.11992265
127	0x3d997088	0.07492167
128	0x3ddde123	0.10833957
129	0xbdd82fac	-0.10555968
130	0xbd179d0c	-0.037015006
131	0xbda136a6	-0.078717515
132	0x3dd5606f	0.10418784
133	0x3e117aa5	0.14206941
134	0x3d83b0d6	0.06430213
135	0xbd7b5f50	-0.061370194
136	0x3d6750ec	0.056473657
137	0xbd246699	-0.040136907
138	0x3eee3ef1	0.46532395
139	0xbd551065	-0.05201759
140	0xbbfee0c4	-0.007778259
141	0x3c530e68	0.012881853
142	0xbdb38684	-0.08765891
143	0x3d21355c	0.039357528
144	0xbbe37fcf	-0.006942726
145	0x3ec70ebb	0.38878426
146	0x3d828fde	0.06375097
147	0xbdcfd81a	-0.1014864
148	0xbe3a8b6e	-0.1821725
149	0x3d9d83de	0.07691167
150	0xbeb68496	-0.3564803
151	0xbe15c176	-0.1462458
152	0xbd036219	-0.032075975
153	0x3e3da2f5	0.18519194
154	0x3dafa2cf	0.08575975
155	0x3dab0f71	0.083525546
156	0x3e3693d2	0.17829826
157	0x3e31e8f0	0.17374015
158	0xbdac07e3	-0.08399942
159	0x3dc2c0fe	0.095094666
160	0xbdcde84f	-0.10054075
161	0x3db078e8	0.08616811
162	0xbddc63ae	-0.107612
163	0x3e251288	0.1612035
164	0xbd4e43fe	-0.05035781
165	0x3dc167c1	0.094436176
166	0x3c82903d	0.015937919
167	0x3d4c1ead	0.049833942
168	0x3deced54	0.11568704
169	0xbde19271	-0.110142596
170	0x3cbdc1e8	0.02316375
171	0xbe3f038d	-0.18653698
172	0x3ccf7d65	0.025328347
173	0xbdacad14	-0.084314495
174	0xbd0c0249	-0.034181867
175	0x3d149c01	0.03628159
176	0x3c803321	0.01564938
177	0xbdaf126d	-0.08548436
178	0xbd38af90	-0.045089304
179	0x3e61168a	0.21981254
180	0xbdc2a13b	-0.095034085
181	0xbc1f48d0	-0.00972195
182	0xbe53ef1b	-0.2069668
183	0x3c1cd4ec	0.009572249
184	0x3d951560	0.072794676
185	0xbd288f80	-0.041152477
186	0x3e2698d1	0.16269232
187	0x3e64aaae	0.22330734
188	0xbdce37f0	-0.10069263
189	0xbd749320	-0.05971062
190	0x3dcb2a54	0.09920183
191	0x3e2fa6ee	0.17153522
192	0xbdd09e06	-0.101863906
193	0xbe45d43d	-0.19319244
194	0xbdab8f0f	-0.08376896
195	0xbe95979e	-0.29217237
196	0x3bdfacb3	0.0068260073
197	0x3e0c4ab9	0.1370038
198	0x3c84f8d1	0.016231926
199	0xbe142437	-0.1446694
200	0xbe0d70ba	-0.13812533
201	0x3cc1af9c	0.023643307
202	0xbe455c61	-0.19273521
203	0x3e13d04b	0.14434926
204	0xbe4234ca	-0.1896545
205	0xbd1e9026	-0.03871169
206	0xbcca96e4	-0.024730153
207	0xbd7fe203	-0.0624714
208	0x3caae6ad	0.020861948
209	0xbe0469d0	-0.1293099
210	0xbe51afcb	-0.20477216
211	0xbd0727eb	-0.032997053
212	0x3cd626e1	0.026141586
213	0x3e0243bf	0.12721156
214	0xbea04c8d	-0.31308404
215	0xbd3c45b9	-0.04596493
216	0x3e07b8ab	0.13254039
217	0xbb9efb23	-0.004851715
218	0xbdaf3486	-0.0855494
219	0x3d807aef	0.06273448
220	0x3ebe28ce	0.37140507
221	0xbe5a70e3	-0.21332125
222	0x3e25fd69	0.1620995
223	0xbd12f31c	-0.03587638
224	0xbd21be19	-0.039487932
225	0xbe02273e	-0.12710282
226	0x3dd3bbee	0.10338579
227	0x3dc85bfb	0.09783169
228	0x3ba35a74	0.004985148
229	0x3df5e6c0	0.12006903
230	0x3e21f86e	0.15817425
231	0xbd3f5f5c	-0.0467218
232	0xbc9a4759	-0.01883285
233	0x3cbcc92a	0.023045141
234	0x3cde97e2	0.027172033
235	0xbd3e1096	-0.046402536
236	0xbe2773b1	-0.16352727
237	0xbcc5984c	-0.024120472
238	0xbd13e76c	-0.036109373
239	0xbd2d66f6	-0.04233452
240	0xbddc9359	-0.10770292
241	0x3e0c93f3	0.13728313
242	0xbd9cacda	-0.07650156
243	0x3e44a313	0.19202833
244	0xbc4794d3	-0.012181479
245	0x3e3a1bdc	0.1817469
246	0xbd2f0a14	-0.04273422
247	0xbdd2b2c9	-0.10288007
248	0x3db79459	0.08963842
249	0xbe76264c	-0.24038047
250	0x3def941e	0.11698173
251	0xbd019718	-0.031638235
252	0xbdbb8d00	-0.09157753
253	0x3d1fa976	0.03897997
254	0xbe9ef182	-0.3104363
255	0x3d9006b2	0.07032527

fc2.bias f4 [64]
0	0x3cd9da81	0.026593449
1	0x3d7b44b5	0.06134482
2	0x3d3f5c14	0.046718672
3	0x3d9a4e20	0.075344324
4	0x3cffbe6a	0.031218726
5	0xbdab7c39	-0.08373303
6	0xbe0e0e7e	-0.13872716
7	0x3d9d5aca	0.07683332
8	0x3e4c65aa	0.19960657
9	0x3eba07de	0.36334127
10	0xbd2513ff	-0.040302273
11	0x3e51c62e	0.20485756
12	0x3e5cb139	0.2155198
13	0xbd739f6a	-0.0594782
14	0x3d1d04d6	0.03833469
15	0x3db5ee53	0.08883347
16	0x3c2b6618	0.010461353
17	0xbdaafbdf	-0.08348822
18	0xbde159e8	-0.110034764
19	0x3e4fcf90	0.20294023
20	0x3d3c0568	0.045903593
21	0x3eea5175	0.45765272
22	0xbc3c14ab	-0.011479537
23	0xbd1c7a34	-0.03820248
24	0xbd373a62	-0.044733413
25	0xbe0923b2	-0.13392523
26	0x3d828d3e	0.06374596
27	0xbd6dc855	-0.05805238
28	0xb92af765	-0.00016304625
29	0x3cad9801	0.021190645
30	0x3d48e03e	0.04904198
31	0xbe2892aa	-0.16462198
32	0xbe0b8e5a	-0.13628522
33	0x3db267c3	0.08711197
34	0xbd3d08bf	-0.04615092
35	0x3df3c6cc	0.11903152
36	0xbdf725ce	-0.120677575
37	0xbd5653db	-0.052326065
38	0x3c0813c3	0.008305493
39	0x3c1b3154	0.00947221
40	0xbe11738b	-0.14204232
41	0x3f020ad6	0.50797784
42	0x3eba1d36	0.3635041
43	0xbe052062	-0.13000634
44	0x3c12b5fb	0.00895452
45	0xbd8ba339	-0.068182416
46	0x3cf03a97	0.029324813
47	0xbe3397c3	-0.17538361
48	0x3d9645be	0.07337521
49	0xbe16561d	-0.14681287
50	0xbe02f2ec	-0.1278798
51	0x3df59549	0.119913645
52	0xbcf2655f	-0.029589353
53	0xbdb0ae56	-0.08627002
54	0x3e965ce6	0.2936775
55	0xbd207d55	-0.039182026
56	0xbe3ea3d7	-0.18617187
57	0xbdcca2e2	-0.09992005
58	0x3d146afc	0.03623484
59	0xbd2d8fc6	-0.04237344
60	0xbd1462a3	-0.03622688
61	0x3d55d1fc	0.05220221
62	0x3ccbef8a	0.024894495
63	0xbdf2893b	-0.11842581

fc3.weight f4 [4, 64]
0	0xbe3f5687	-0.18685351
1	0x3e8b29ef	0.2718043
2	0x3e14ed5e	0.14543673
3	0x3de10083	0.10986426
4	0x3e7d633a	0.24744883
5	0xbec34e47	-0.38145658
6	0xbd35909e	-0.04432737
7	0x3d4ef3ae	0.05052536
8	0x3e8af962	0.2714339
9	0x3d93d086	0.07217507
10	0x3d230ff2	0.03981013
11	0x3e6c13d9	0.23054446
12	0x3e6ac055	0.22924931
13	0xbe2de8da	-0.16983357
14	0x3e9a5990	0.30146456
15	0x3da3a6e5	0.07990817
16	0x3dccfd30	0.10009229
17	0x3e91672a	0.2839902
18	0xbe4ca5be	-0.199851
19	0x3e05b8ab	0.13058726
20	0x3de9d0a4	0.11416748
21	0x3e32f80d	0.17477436
22	0x3e6de97e	0.23233601
23	0x3d44a24e	0.04800635
24	0xbf1cbbc9	-0.6122404
25	0xbd6bc511	-0.057560984
26	0xbe17f0f0	-0.14838004
27	0x3dcc9f79	0.099913545
28	0x3d9614f1	0.07328213
29	0xbd4e20d0	-0.05032426
30	0xbe021955	-0.12704976
31	0x3d8d9624	0.06913403
32	0xbdd97740	-0.10618448
33	0x3db47534	0.08811417
34	0xbe3233aa	-0.17402521
35	0x3e3f7fd1	0.18701102
36	0x3e7a3b5d	0.24436708
37	0x3d87f8e0	0.06639266
38	0x3e84ff4e	0.25976032
39	0x3e8d0f24	0.27550614
40	0x3dd01f1d	0.101621844
41	0x3e3d40b4	0.18481714
42	0x3db07e6a	0.086178616
43	0xbda1964c	-0.07889995
44	0x3da0e72c	0.078565925
45	0xbdb0ba0e	-0.08629237
46	0xbd18ed2b	-0.037335556
47	0x3db5322b	0.088474594
48	0x3f281685	0.6565936
49	0x3f0cef44	0.5505259
50	0xbe068799	-0.13137664
51	0x3f042dd6	0.5163244
52	0x3e5eead2	0.21769264
53	0xbdb4ed96	-0.088343784
54	0x3e1df155	0.15424092
55	0x3ed297e9	0.41131523
56	0xbe8969e3	-0.26838598
57	0x3b9936c8	0.00467572
58	0x3e8948a3	0.2681323
59	0x3d4c1852	0.04982788
60	0xbe810acf	-0.2520356
61	0x3de5947d	0.112099625
62	0x3cd88a82	0.026433233
63	0x3e231704	0.15926749
64	0x3ee13885	0.43988433
65	0x3e00006a	0.12500158
66	0x3e0a05d9	0.13478793
67	0x3e06f7f4	0.13180524
68	0x3e4060fc	0.18786997
69	0xbc53578e	-0.012899293
70	0xbb0702ce	-0.0020601037
71	0x3eb41c9c	0.35178077
72	0x3e7aa58c	0.24477214
73	0x3dc1ff94	0.09472576
74	0x3e02daee	0.12778828
75	0x3e852c5f	0.26010415
76	0x3e2ec1fb	0.17066185
77	0xbd7afdcf	-0.061277207
78	0x3e0d9f89	0.13830389
79	0x3e1e622d	0.15467139
80	0xbf3652b3	-0.7121994
81	0xbeb28e36	-0.34874123
82	0xbe135f9b	-0.1439194
83	0x3dfff638	0.124981344
84	0x3ed8a8b1	0.423162
85	0x3e1d9984	0.15390593
86	0x3e2837a7	0.1642748
87	0x3e7141ad	0.2356021
88	0xbda22b30	-0.079183936
89	0xbd6d0b42	-0.057872064
90	0xbd756fe5	-0.059921164
91	0xbea59e9a	-0.32347566
92	0xbece579b	-0.40301213
93	0x3e12815b	0.14307158
94	0xbd18192e	-0.03713339
95	0x3d4ef07d	0.050522316
96	0xbe50ecf7	-0.20402895
97	0x3db3954d	0.08768711
98	0x3eb01c3f	0.3439655
99	0x3e1bf983	0.152319
100	0x3d9ff4a7	0.078103356
101	0xbd9fbcff	-0.0779972
102	0x3d10770e	0.03526979
103	0x3ec8a4ea	0.3918832
104	0x3dc29923	0.09501865
105	0x3e5bdb85	0.21470459
106	0x3d9e65f6	0.07734291
107	0xbd99a41f	-0.07502007
108	0x3e8c6a86	0.2742502
109	0xbd9b414c	-0.07580814
110	0x3db3aafe	0.087728485
111	0xbc596410	-0.013268486
112	0x3eec5249	0.4615653
113	0x3e92ef7b	0.28698334
114	0xbce4e934	-0.027943231
115	0x3ec8ea5e	0.39241308
116	0x3f15817f	0.5840072
117	0x3c85237c	0.016252272
118	0x3e0469de	0.1293101
119	0x3ebfe90a	0.37482482
120	0xbda1a744	-0.078932315
121	0x3dc83cdd	0.09777234
122	0x3e27aef4	0.16375333
123	0x3e11dea7	0.14245091
124	0xbe1a5263	-0.1507049
125	0x3e2872dd	0.16450067
126	0xbe092541	-0.13393117
127	0x3e60e2fd	0.21961589
128	0x3de6c327	0.11267691
129	0x3dca8788	0.09889132
130	0x3e770b2b	0.24125354
131	0x3e38999c	0.18027347
132	0x3e909cf9	0.2824476
133	0xbe300383	-0.1718884
134	0x3e8f694d	0.28010026
135	0x3e09e9e5	0.1346813
136	0x3e464d61	0.19365455
137	0x3e1992b3	0.14997368
138	0x3e20b006	0.15692148
139	0x3d3519dc	0.044214115
140	0x3e652176	0.22376046
141	0xbea9fb0e	-0.33199352
142	0x3e0f089e	0.13968131
143	0x3ecd08f4	0.40045893
144	0xbe0c5fde	-0.13708445
145	0xbebb6774	-0.36602366
146	0xbe94dacb	-0.29073176
147	0x3d9ec4e4	0.07752398
148	0x3ef77f99	0.48339537
149	0x3e68aee9	0.22722973
150	0xbe1b99a3	-0.15195327
151	0x3e048a78	0.12943447
152	0xbdb631ba	-0.08896203
153	0xbd52d253	-0.051470112
154	0x3df39cdc	0.11895153
155	0xbe7afbae	-0.2451007
156	0x3e47bbca	0.1950523
157	0x3dbdb475	0.09262935
158	0x3dde84d8	0.10865182
159	0xbe7401b6	-0.23828778
160	0xbe7b5ca8	-0.24547064
161	0x3e87cdfe	0.26524347
162	0x3e8b9153	0.2725931
163	0x3e734602	0.23757175
164	0x3e31c81e	0.17361495
165	0x3cb760c1	0.022385003
166	0x3ead5cf7	0.3385999
167	0xbd220914	-0.03955944
168	0x3dc0cf6e	0.09414564
169	0x3e31a612	0.17348507
170	0x3e0f06bd	0.13967414
171	0x3e970d6a	0.29502422
172	0x3b8440f6	0.0040360643
173	0xbd8627fc	-0.06550595
174	0x3d768c6a	0.060192503
175	0x3da21169	0.07913477
176	0x3eb75dfd	0.35813895
177	0x3f1ff9c5	0.62490493
178	0xbd414853	-0.047188114
179	0x3ed23125	0.4105312
180	0xbe5a8d7d	-0.21343036
181	0xbe303868	-0.17209017
182	0x3dbe0e26	0.09280042
183	0x3d33a0f9	0.043854687
184	0xbe82beef	-0.25536296
185	0xbe0d0af8	-0.13773715
186	0x3e8a3212	0.26991326
187	0xbec4ae6c	-0.38414323
188	0xbeb6064d	-0.35551682
189	0x3e360272	0.1777437
190	0xbe57f331	-0.21088864
191	0xbe2b6610	-0.16738153
192	0x3ecd8485	0.40140167
193	0x3e3e6227	0.1859213
194	0x3d843092	0.064545766
195	0x3e468e32	0.1939018
196	0x3c5d2d77	0.013499609
197	0xbe6cdb57	-0.23130547
198	0xbea92bcf	-0.33041236
199	0xbd4b494a	-0.04963044
200	0x3e6d2b09	0.23160948
201	0x3e06bbdd	0.13157602
202	0x3ed1a76a	0.4094804
203	0xbce36620	-0.027758658
204	0x3e45e6ee	0.19326374
205	0xbd7be7a8	-0.06150022
206	0x3ead45a9	0.3384221
207	0x3db67f2c	0.08910975
208	0x3e0829ce	0.13297197
209	0xbe6c3144	-0.23065668
210	0xbdeb14d9	-0.11478586
211	0x3e2fa71e	0.17153594
212	0xbd7d6447	-0.06186321
213	0x3e23652d	0.15956564
214	0xbcda7bfc	-0.026670448
215	0x3ec6532d	0.38735333
216	0xbd51822e	-0.05114954
217	0xbd947980	-0.07249737
218	0x3dae2dc9	0.085048266
219	0xbdc5e3e8	-0.0966261
220	0x3c0f6025	0.00875095
221	0xbed8e1c5	-0.42359748
222	0x3dc3b934	0.09556809
223	0x3db82b05	0.0899258
224	0xbe84bf74	-0.25927317
225	0x3e97964e	0.2960686
226	0xbe347268	-0.17621768
227	0x3e0879c4	0.133277
228	0xbe58ec11	-0.21183802
229	0x3dfdbd77	0.12389653
230	0x3da11585	0.07865433
231	0x3f1f9ffc	0.6235349
232	0xbd63ebe6	-0.055644892
233	0x3e350a84	0.17679793
234	0x3e480987	0.19534884
235	0x3d1093cf	0.03529721
236	0x3e8eaa91	0.27864507
237	0xbe668c62	-0.2251449
238	0x3e043550	0.12910962
239	0x3c9a9c86	0.018873464
240	0x3f00411a	0.5009934
241	0xbcab74df	-0.020929752
242	0x3e48f2bf	0.1962385
243	0x3e934552	0.28763825
244	0x3dffe1c1	0.12494231
245	0xbc0d646f	-0.008629902
246	0x3dcf35bd	0.10117672
247	0x3ece3aae	0.40279144
248	0xbeaa7ef7	-0.3329999
249	0xbeb3a013	-0.35083064
250	0x3e0a0f3c	0.13482374
251	0x3d772727	0.060340073
252	0xbe80c2fb	-0.25148758
253	0x3e1a9943	0.15097527
254	0xbdd9e02d	-0.10638461
255	0xbd2078d4	-0.03917773

fc3.bias f4 [4]
0	0x3e8e8dae	0.27842468
1	0x3e688245	0.22705944
2	0x3e410755	0.18850453
3	0x3e510d06	0.20415124
