dueling-dqn-model-weights.pth (torch_old, 62703 bytes, 11 tensors)

fc1.weight f4 [64, 37]
0.08627183 -0.21073294 -0.20422892 0.0132163875 -0.18983606 -0.03660486 -0.021332402 -0.013763057
0.11556431 0.24696247 -0.090106204 -0.16212736 0.0013619892 0.0029726184 0.11211849 -0.0058548297
0.07684445 -0.13417362 0.11059396 0.16039053 -0.061065823 0.08621714 0.0658025 0.18420218
0.16500963 0.20946191 -0.11996535 -0.024690244 -0.18556987 -0.3789357 0.13357958 0.07003349
0.15153027 -0.04720973 -0.21500131 0.33009705 -0.008034007 0.10271522 0.023584353 0.031502176
-0.15827994 -0.010807268 -0.40166554 -0.44819278 0.051579088 -0.33467472 -1.675176 -0.19668894
0.0061125853 0.34910536 -0.3551805 -0.053463463 -0.07669264 0.022620833 -0.21229903 -0.4045455
0.015024175 -0.34097916 0.028957447 0.19528511 -0.47701922 -1.0559782 0.015694074 -0.13024503
-0.20482233 -0.42466545 -0.113950305 -0.42267835 -0.22284907 0.032069128 -0.3979476 -1.8288621
-0.13484915 0.062499568 0.10376454 0.08042275 0.037803974 -0.10203739 -0.12821662 -0.08281875
0.043356225 0.10573007 0.103414305 0.13080072 -0.12801695 0.059171192 -0.11257873 -0.03835779
0.048141334 0.22455125 -0.33311865 0.105787784 -0.11642952 -0.2663584 -0.14521134 0.0013181786
0.12646858 -0.051445518 0.0480765 -0.018966738 0.1972864 -0.35415864 0.22278094 0.37620786
-0.010041363 -0.06263441 0.09657195 0.086754285 -0.103208184 0.12849733 0.013997468 -0.076541066
-0.022642795 0.08237798 0.21333343 0.33734682 -0.13990566 0.03228999 0.029489487 -0.12205933
0.49676603 -0.3792229 0.24876612 0.027523344 0.119946085 -0.00226016 -0.12121563 -0.118234515
0.026695373 -0.017316604 0.3701903 0.038763996 0.23465483 0.17423621 0.13322859 -0.32016778
0.07575125 0.05960634 0.047497246 0.2833932 0.19796434 0.0140863275 0.2130763 -0.013525552
-0.08568629 -0.16162015 -0.0776724 0.019779967 0.2111185 -0.012192615 0.12389347 -0.08023741
0.23934358 -0.20015544 0.0987504 -0.18113147 0.015052646 0.21636717 0.29943144 -0.22644785
-0.31341133 0.11270907 -0.9944412 -0.040159475 -0.06933023 -0.06586343 -0.09798862 -0.14349705
0.007984309 0.017114274 0.24512106 -0.032495897 -0.19471945 -0.18015654 -0.11851877 -0.039423484
0.02111011 -0.005487038 0.0054263733 -0.077536315 -0.0066813705 -0.1863835 0.13098764 -0.23562299
-0.062446028 -0.045639407 0.0042552454 0.016622389 -0.019799298 0.06756156 0.096787736 0.08548435
0.021116007 -0.057213526 -0.22709587 -0.022448665 0.10822342 0.080683365 0.11545689 0.25017118
0.030946704 0.045242794 0.046364795 0.12684153 0.13961333 -0.029693423 -0.008091133 0.0788079
0.071907796 0.16708215 -0.049758673 0.028816499 0.03641053 0.14235659 0.23944354 0.38446185
-0.43442178 -0.5055591 -0.485402 -2.3013363 -0.0016030752 0.00018330337 -0.25620797 0.22705579
0.097706266 0.016775683 -0.17085446 -0.0129215345 0.15946083 0.01800133 0.034622356 0.051446896
-0.044498175 0.13798861 0.09641081 0.17421724 0.20255484 -0.11507774 0.06455514 0.27869424
0.099950224 0.28334492 0.029745933 0.10111905 0.17013057 0.21928382 0.06911129 -0.32236293
0.13806142 0.03682909 0.13227065 0.13330023 -0.12284496 -0.11219632 0.25719687 0.08588771
00000000: 49af b03d 60ca 57be 6321 51be 8c89 583c
00000010: 6264 42be faee 15bd 4ac1 aebc 727e 61bc
00000020: fbac ec3d bbe3 7c3e 9a89 b8bd b704 26be
00000030: c684 b23a 43d0 423b 619e e53d dfd9 bfbb
00000040: 9f60 9d3d cf64 09be 167f e23d 6a3d 243e
00000050: 2820 7abd 9d92 b03d 76c3 863d 7f9f 3c3e
00000060: 49f8 283e 2f7d 563e 65b0 f5bd 3243 cabc
00000070: 0706 3ebe dc03 c2be 16c9 083e b86d 8f3d
00000080: c02a 1b3e fd5e 41bd 4e29 5cbe 7b02 a93e
00000090: 11a1 03bc 5b5c d23d f933 c13c 6d08 013d
000000a0: 2314 22be f810 31bc 1ba7 cdbe 8679 e5be
000000b0: 9844 533d 7c5a abbe 2b6c d6bf d368 49be
000000c0: 154c c83b f0bd b23e 38da b5be 81fc 5abd
000000d0: 0811 9dbd 534f b93c eb64 59be 9620 cfbe
000000e0: f527 763c d294 aebe 2b38 ed3c d2f8 473e
000000f0: dd3b f4be 4b2a 87bf dc90 803c f45e 05be
00000100: f2bc 51be c06d d9be c75e e9bd 4c69 d8be
00000110: 8c32 64be eb5a 033d cabf cbbe 2718 eabf
00000120: e515 0abe 8cff 7f3d 8182 d43d afb4 a43d
00000130: 57d8 1a3d fbf8 d0bd 384b 03be e09c a9bd
00000140: 4c96 313d 0289 d83d e1ca d33d a0f0 053e
00000150: e016 03be 7e5d 723d ad8f e6bd 0f1d 1dbd
00000160: d92f 453d c3f0 653e 878e aabe 44a7 d83d
00000170: 9a72 eebd 2160 88be 48b2 14be bcc6 ac3a
00000180: fb80 013e 89b8 52bd ddeb 443d 2260 9bbc
00000190: 7205 4a3e 4854 b5be b020 643e 519e c03e
000001a0: 8784 24bc 7846 80bd 84c7 c53d 3bac b13d
000001b0: d05e d3bd ce94 033e a355 653c 90c1 9cbd
000001c0: 627d b9bc c9b5 a83d 1474 5a3e b9b8 ac3e
000001d0: 6e43 0fbe 8242 043d f093 f13c 3efa f9bd
000001e0: 1e58 fe3e 8129 c2be 8cbc 7e3e a378 e13c
000001f0: 4ba6 f53d 311f 14bb e63f f8bd f024 f2bd
00000200: 41b0 da3c 8ddb 8dbc 9589 bd3e ffc6 1e3d
00000210: 5b49 703e fa6a 323e 136d 083e 08ed a3be
00000220: 7923 9b3d c725 743d 798c 423d ea18 913e
00000230: 2ab7 4a3e 57ca 663c ac30 5a3e 479a 5dbc
00000240: 4b7c afbd c17f 25be b512 9fbd 9909 a23c
00000250: 732f 583e 89c3 47bc dcbb fd3d 8353 a4bd
00000260: 7c16 753e 8cf5 4cbe a63d ca3d 877a 39be
00000270: 609f 763c 5b8f 5d3e 144f 993e f2e1 67be
00000280: 7377 a0be 03d4 e63d b393 7ebf 437e 24bd
00000290: 02fd 8dbd 68e3 86bd 42ae c8bd e4f0 12be
000002a0: 9fd0 023c 3c33 8c3c 0401 7b3e 6b1a 05bd
000002b0: 8964 47be f57a 38be f8b9 f2bd 857a 21bd
000002c0: 1cef ac3c 9ccc b3bb b8cf b13b 5ccb 9ebd
000002d0: 66ef dabb 51db 3ebe a021 063e 2747 71be
000002e0: 68c7 7fbd 63f0 3abd 966f 8b3b ad2b 883c
000002f0: 2332 a2bc b75d 8a3d a638 c63d 6b12 af3d
00000300: 7afb ac3c bb58 6abd d28b 68be 43e6 b7bc
00000310: 3ea4 dd3d 523d a53d a974 ec3d 7016 803e
00000320: f183 fd3c 8250 393d 03e9 3d3d bfe2 013e
00000330: ccf6 0e3e 9f3f f3bc ac90 04bc 0966 a13d
00000340: 6544 933d 9517 2b3e c0cf 4bbd 9410 ec3c
00000350: 3523 153d edc5 113e b030 753e 2fd8 c43e
00000360: 886c debe 526c 01bf 9c86 f8be 1849 13c0
00000370: 471e d2ba 2035 4039 b12d 83be 5081 683e
00000380: 391a c83d 286d 893c 79f4 2ebe d8b4 53bc
00000390: b349 233e 8677 933c 2cd0 0d3d fbb9 523d
000003a0: b843 36bd e34c 0d3e 0873 c53d 0166 323e
000003b0: 896a 4f3e e1ad ebbd 7c35 843d 03b1 8e3e
000003c0: b4b2 cc3d 9612 913e bead f33c 8117 cf3d
000003d0: b536 2e3e f08b 603e 388a 8d3d c10c a5be
000003e0: f95f 0d3e 1ada 163d f571 073e db7f 083e
000003f0: 2396 fbbd 2fc7 e5bd 4faf 833e e5e5 af3d

fc1.bias f4 [64]
-0.035894375 -0.0005243516 0.01760919 -0.045603514 -0.10387649 0.00562798 -0.0070514902 0.08593286
-0.10052442 -0.12947729 0.0729821 -0.033011425 -0.07399638 -0.09052541 0.10542813 0.03347382
-0.08522849 0.0047021015 0.01757029 -0.1306746 0.01761516 -0.042116847 -0.09767165 -0.14314844
0.10633849 0.040490463 -0.07562571 0.21005711 0.10945633 0.15558453 -0.03607716 -0.055558957
0.05088351 0.076811716 -0.04583163 -0.25611463 0.022408137 -0.008523939 0.19984244 0.08926723
-0.007452389 0.17255594 -0.014224215 -0.12389919 -0.007110762 0.13163358 0.01109592 0.18817164
0.050999563 0.083625205 -0.20837557 0.12891756 -0.12493511 0.044702366 0.0069560446 -0.022153163
0.071720555 0.019345481 -0.15871173 -0.17328799 -0.028089954 0.14679748 -0.19464542 -0.16128413
00000000: fb05 13bd a474 09ba 2641 903c c0ca 3abd
00000010: 32bd d4bd eb6a b83b 3010 e7bb 91fd af3d
00000020: bfdf cdbd b295 04be a477 953d fd36 07bd
00000030: 6a8b 97bd 6365 b9bd b4ea d73d d81b 093d
00000040: 468c aebd 1614 9a3b 92ef 8f3c 90cf 05be
00000050: ab4d 903c b782 2cbd 1308 c8bd 8195 12be
00000060: ffc7 d93d 54d9 253d a7e1 9abd 3619 573e
00000070: a42a e03d 8d51 1f3e a5c5 13bd ca91 63bd
00000080: 3a6b 503d 764f 9d3d f2b9 3bbd 7521 83be
00000090: 4591 b73c fea7 0bbc 7fa3 4c3e bdd1 b63d
000000a0: 2c33 f4bb 81b2 303e af0c 69bc dcbe fdbd
000000b0: 6501 e9bb f4ca 063e a9cb 353c 11b0 403e
000000c0: ebe4 503d b143 ab3d 6860 55be f702 043e
000000d0: fbdd ffbd d419 373d 88ef e33b 8d7a b5bc
000000e0: 3ae2 923d 6a7a 9e3c 5485 22be 6872 31be
000000f0: e71c e6bc 1452 163e 2151 47be ab27 25be

fc2.weight f4 [64, 64]
-0.033623777 -0.13079762 -0.025718393 -0.05631611 -0.12054165 0.09734271 0.05629934 0.016058553
-0.044139635 -0.32833585 0.0090399515 0.0016833518 -0.16473523 -0.0043152994 -0.1312713 0.28651917
0.11843374 -0.050287515 0.013471914 -0.061131 0.006612666 0.0064263996 -0.075854816 -0.0013299581
-0.008288556 -0.006581113 0.043664075 0.20488963 0.03124121 -0.039788768 0.37064004 -0.057920873
-0.0474134 -0.054932997 -0.0856278 -0.040928513 0.0059762546 -0.08453135 0.1333132 -0.016561829
0.06799555 0.027585493 -0.080194704 0.004619809 -0.0127086 -0.056398455 -0.008774999 -0.06417922
0.14260833 -0.05432954 -0.22859646 0.23554538 -0.069097705 -0.046187915 -0.004688609 -0.06700704
0.117963344 0.01799742 -0.084660284 0.039581914 0.58843255 -0.09867377 -0.22668444 -0.19755921
-0.09759531 0.03600429 0.041835625 -0.1328809 -0.09182769 0.06511762 -0.018431608 -0.07148109
-0.09052928 0.009736667 -0.022629462 0.060520902 -0.057313114 0.05355023 -0.073876455 -0.011665645
0.023485253 -0.099742875 -0.021843448 -0.0673106 -0.011547638 -0.07105783 0.07815443 -0.09419132
-0.10740191 -0.12591375 -0.061553657 0.035068337 -0.118928395 -0.06235978 -0.06263395 0.021741465
-0.062318157 -0.116830535 -0.046448313 0.074664354 -0.022656517 -0.109588504 -0.064880356 0.04855425
0.0026011516 -0.06733121 0.06364665 0.068720326 0.08498892 -0.103541486 0.042476494 -0.081888214
-0.055602193 0.0006877929 -0.061826035 0.074818075 0.010796034 -0.11086494 -0.04035481 -0.004906553
-0.104679726 -0.1192776 -0.06969112 0.0020778792 -0.04428631 0.03191285 -0.09090023 -0.07469903
0.054044105 0.15900889 -0.21922956 -0.020171303 -0.101056166 0.24105124 0.10169162 -0.24657366
-0.20679547 -0.03599487 -0.101602435 -0.5094298 0.08132354 0.07736145 0.058862004 0.17711568
-0.031070782 0.12859067 -0.059162118 0.0011555416 0.19862157 -0.18163756 0.0725832 -0.060027357
0.10308826 -0.32105687 0.15510264 0.075767234 -0.06109828 -0.2448251 0.07796152 -0.033431828
0.09317884 0.0010298807 -0.025719866 -0.09845409 -0.17488424 -0.017106669 -0.5223038 -0.2769784
-0.025165688 0.12891717 -0.12381817 -0.07123527 -0.049149487 -0.51922816 -0.048358772 -0.17491087
0.033244625 0.1007016 0.01502063 -0.17153817 0.2649062 -0.0072033904 -0.25948378 -0.12823083
0.10710806 0.15960066 -0.086710945 -0.11719646 -0.3080983 0.12348886 -0.2365237 -0.24109551
-0.12634353 -0.15940538 -0.011792619 0.03546031 0.051338527 -0.32019934 -0.07322595 -0.019709364
-0.06702136 -0.5489847 -0.12353191 -0.010322498 0.003546048 -0.08766578 -0.09500287 -0.091341935
-0.017588506 -0.12142696 -0.09895439 -0.089378506 -0.30128494 -0.32668248 -0.12074492 -0.05975486
0.057564605 0.090383075 -0.06309591 0.04108464 0.034195878 -0.27162692 -0.047355242 -0.106346406
-0.16405062 -0.2134171 0.11272429 -0.0059182476 0.17996916 0.05505759 -0.13703594 0.20271112
0.049634676 -0.19068684 0.08356362 0.024165211 -0.19054271 0.11358988 0.070105895 0.02764347
-0.15919986 0.20563987 0.08419497 -0.13435216 -0.0694292 -0.07845096 -0.2060832 0.053398877
-0.28651398 -0.3776798 -0.11652246 -0.03790709 -0.10866706 0.058390576 0.12436075 0.08948544
00000000: 16b9 09bd d0ef 05be 61af d2bc b9ab 66bd
00000010: 8ade f6bd 9d5b c73d 239a 663d 3a8d 833c
00000020: c3cb 34bd a31b a8be 4e1c 143c eaa3 dc3a
00000030: 5ab0 28be 5b67 8dbb fc6b 06be a4b2 923e
00000040: 648d f23d 48fa 4dbd 4eb9 5c3c 8064 7abd
00000050: 10af d83b 8c94 d23b c559 9bbd fd51 aeba
00000060: b9cc 07bc 61a6 d7bb 1ad9 323d 96ce 513e
00000070: 91ed ff3c 8cf9 22bd 88c4 bd3e 703e 6dbd
00000080: 8e34 42bd 6c01 61bd a15d afbd a8a4 27bd
00000090: 75d4 c33b c61e adbd 4183 083e acac 87bc
000000a0: 4041 8b3d f9fa e13c 1f3d a4bd c461 973b
000000b0: bb37 50bc 1102 67bd 03c5 0fbc 6570 83bd
000000c0: eb07 123e a788 5ebd 3115 6abe cf32 713e
000000d0: 1983 8dbd 8a2f 3dbd e7a2 99bb fd3a 89bd
000000e0: c496 f13d 536f 933c 5f62 adbd a520 223d
000000f0: 84a3 163f 7915 cabd f71f 68be f64c 4abe
00000100: 0de0 c7bd 3c79 133d d55b 2b3d ee11 08be
00000110: 2810 bcbd 635c 853d e2fd 96bc ad64 92bd
00000120: 6a67 b9bd 8b86 1f3c 6c61 b9bc c4e4 773d
00000130: 28c1 6abd 7c57 5b3d 8a4c 97bd 4321 3fbc
00000140: 2564 c03c fe45 ccbd 08f1 b2bc 24da 89bd
00000150: 4e32 3dbc c486 91bd 6e0f a03d 61e7 c0bd
00000160: 88f5 dbbd 89ef 00be b01f 7cbd d1a3 0f3d
00000170: bb90 f3bd f86c 7fbd 3a46 80bd 281b b23c
00000180: 5341 7fbd d944 efbd 9640 3ebd a0e9 983d
00000190: 299a b9bc f06f e0bd fedf 84bd d2e0 463d
000001a0: 1578 2a3b f2e4 89bd 2d59 823d 3ebd 8c3d
000001b0: ac0e ae3d 8f0d d4bd d5fb 2d3d 02b5 a7bd
000001c0: 20bf 63bd 004d 343a 4c3d 7dbd 383a 993d
000001d0: d9e1 303c 280d e3bd 164b 25bd 26c7 a0bb
000001e0: 5362 d6bd d047 f4bd 38ba 8ebd 072d 083b
000001f0: 9065 35bd 0cb7 023d e629 babd cefb 98bd
00000200: 5a5d 5d3d 3ad3 223e b77d 60be 4a3e a5bc
00000210: 89f6 cebd 23d6 763e b243 d03d ce7d 7cbe
00000220: 31c2 53be 5b6f 13bd f014 d0bd fe69 02bf
00000230: f58c a63d ae6f 9e3d 4919 713d d05d 353e
00000240: 2788 febc 46ad 033e fa53 72bd 8b75 973a
00000250: 7463 4b3e 32ff 39be 80a6 943d 3fdf 75bd
00000260: f01f d33d 9161 a4be 3ad3 1e3e da2b 9b3d
00000270: 3142 7abd 6eb3 7abe 4aaa 9f3d d0ef 08bd
00000280: 8cd4 be3d 10fd 863a 78b2 d2bc 4ca2 c9bd
00000290: db14 33be 4923 8cbc b4b5 05bf 1dd0 8dbe
000002a0: 4628 cebc dd02 043e 6194 fdbd cce3 91bd
000002b0: f950 49bd 23ec 04bf d913 46bd d61b 33be
000002c0: 842b 083d a43c ce3d 1719 763c b4a7 2fbe
000002d0: c9a1 873e 6b0a ecbb 0fdb 84be f14e 03be
000002e0: 785b db3d 5b6e 233e 8295 b1bd b304 f0bd
000002f0: 0fbf 9dbe bae7 fc3d 4533 72be bee1 76be
00000300: 3360 01be 2a3b 23be d435 41bc d43e 113d
00000310: 5948 523d 2bf1 a3be 7df7 95bd 8875 a1bc
00000320: 7f42 89bd 438a 0cbf 4cfe fcbd b21f 29bc
00000330: d064 683b 1e8a b3bd dd90 c2bd 7b11 bbbd
00000340: c515 90bc b3ae f8bd 99a8 cabd 140c b7bd
00000350: 0542 9abe ed42 a7be 1d49 f7bd 83c1 74bd
00000360: ddc8 6b3d c31a b93d 6e38 81bd 5e48 283d
00000370: fa10 0c3d af12 8bbe 92f7 41bd 25cc d9bd
00000380: e3fc 27be 038a 5abe fedb e63d dced c1bb
00000390: d649 383e 1184 613d 2653 0cbe 8193 4f3e
000003a0: bb4d 4b3d 6943 43be 6723 ab3d 1ff6 c53c
000003b0: a11d 43be d0a1 e83d ae93 8f3d 8f74 e23c
000003c0: 4a05 23be 4293 523e 6a6e ac3d 9d93 09be
000003d0: e530 8ebd e6aa a0bd 7907 53be c8b8 5a3d
000003e0: f6b1 92be 3f5f c1be 54a3 eebd 7744 1bbd
000003f0: d68c debd f52a 6f3d d9b0 fe3d 2444 b73d

fc2.bias f4 [64]
0.019862117 -0.096682765 -0.2086759 0.08620722 0.097590804 -0.014966894 0.16266254 0.08989771
0.096027985 0.057920575 -0.12279031 0.07809399 -0.17818035 0.070259675 -0.011664391 0.059261836
-0.13925947 0.059815876 -0.07995626 0.028733622 -0.1087379 0.085021354 -0.06191219 -0.096892014
0.07443246 0.062277265 0.046057727 -0.082272135 0.008944786 -0.0136526385 0.0682344 0.070864804
0.112969905 -0.020815043 0.08169808 0.13713719 0.030295555 0.013380292 -0.083088 -0.10868012
-0.024154348 -0.12383672 -0.0052562896 0.0496506 -0.06431265 -0.075322084 -0.12374616 0.053620927
0.049717598 0.09861801 0.055567626 -0.1271592 0.087351106 -0.085944556 -0.1622167 -0.1459475
-0.10827919 -0.17166339 0.08491486 0.061053608 -0.082683325 -0.13417165 -0.12871778 0.09867104
00000000: e1b5 a23c 9d01 c6bd 23af 55be 698d b03d
00000010: b0dd c73d b437 75bc 0291 263e 4a1c b83d
00000020: 52aa c43d 203e 6d3d 7c79 fbbd beef 9f3d
00000030: e974 36be 4ee4 8f3d 001c 3fbc 8abc 723d
00000040: 099a 0ebe 7e01 753d 1cc0 a3bd c662 eb3c
00000050: fab1 debd ad1f ae3d a397 7dbd 526f c6bd
00000060: 0c70 983d 7216 7f3d 07a7 3c3d 4b7e a8bd
00000070: 278d 123c 51af 5fbc 7abe 8b3d 9121 913d
00000080: c45c e73d 4f84 aabc 5351 a73d b16d 0c3e
00000090: 622e f83c 0339 5b3c 0b2a aabd af93 debd
000000a0: 57df c5bc 1b9e fdbd f43c acbb 6d5e 4b3d
000000b0: 5ab6 83bd 7742 9abd a06e fdbd 9ea1 5b3d
000000c0: aea4 4b3d 3df8 c93d e19a 633d 0536 02be
000000d0: 23e5 b23d b303 b0bd 221c 26be 4373 15be
000000e0: 7bc1 ddbd 87c8 2fbe d8e7 ad3d 5913 7a3d
000000f0: e055 a9bd 4b64 09be 98ce 03be 0b14 ca3d

adv_fc1.weight f4 [64, 64]
0.07475038 -0.045742 0.14726163 -0.02981236 0.07302537 0.068330064 0.04911144 -0.046021964
0.11393101 -0.049913157 0.073860675 -0.0052983863 -0.12816636 0.0927164 -0.0032447951 -0.026880385
0.087323464 -0.07414329 0.057734996 -0.070645876 -0.06864347 0.31471968 0.09147592 0.056677386
-0.04065296 0.06796618 0.02789922 -0.054801658 -0.2584831 0.18927215 0.037144594 0.009235509
0.13064134 0.35272363 -0.018299807 -0.047221154 0.12172717 0.07248649 0.048068933 0.13178653
0.18194607 0.17399164 0.08597715 0.075316325 0.069340035 0.008776233 0.10476345 0.01744495
-0.11214864 0.044212032 -0.036886293 0.029658519 0.05308041 -0.14594312 -0.005624226 -0.073211774
0.12258115 0.06472284 0.11333358 -0.022658177 0.17573059 -0.0644863 0.03427762 0.15345423
0.11607098 0.08981788 0.13973723 -0.083895616 0.103342555 0.093191236 -0.054988254 0.017488379
0.05227462 0.11666753 -0.14349028 0.20177622 -0.122212835 0.30432716 0.02398512 -0.094357535
-0.23389983 0.070669875 -0.34219936 0.0062800543 0.24238102 -0.090387575 0.08975698 -0.22734347
0.21898033 -0.3179945 -0.024739178 -0.00046668947 -0.046462372 -0.049596604 -0.16195047 -0.15379883
0.12117767 0.072327696 -0.15662919 0.15151031 0.06189206 -0.12769383 0.13705674 0.061822474
-0.1556725 -0.097775996 0.01644866 -0.039955325 -0.08708431 -0.12932128 -0.028364584 -0.16544664
0.17456058 0.3330239 -0.02181066 -0.07902524 0.16744113 -0.23834383 -0.07665364 0.23271844
-0.27323753 0.3074472 -0.35505182 -0.030473718 -0.30041707 0.1123152 0.030376602 -0.19087988
0.06581838 -0.03495361 -0.2695626 0.097793944 -0.07451467 -0.023802722 0.019034175 0.11496341
-0.040668573 -0.09992516 -0.0536058 -0.12812434 -0.045687925 -0.09981405 0.029904056 0.081746586
0.11045944 0.16568011 -0.13031109 0.36331892 -0.04602603 -0.015785592 -0.13309155 -0.22330637
0.14418314 -0.4230718 -0.0854419 0.057569195 -0.13920783 0.21347946 0.22605358 0.18093981
0.20472543 -0.24241002 -0.092199765 -0.029963939 -0.06098777 0.061417382 -0.059900966 -0.037708715
-0.00012738927 0.09441579 0.0871859 -0.18157995 -0.13753778 0.1404831 0.087222785 -0.020365687
0.049977135 0.06824511 -0.07587581 -0.09962596 0.14320628 0.03932447 -0.004410109 0.09478479
-0.37282157 -0.3123923 -0.10696297 0.11866055 -0.21314028 -0.0003988602 0.03117956 0.13492002
0.13041022 0.064429045 0.047459804 -0.008359439 -0.07006539 -0.078172565 0.095930085 0.09024693
0.13068458 -0.030534424 0.06465979 -0.070284344 0.12405559 0.28040653 0.13029385 0.22533245
-0.075905405 0.06595183 -0.388343 -0.18651171 -0.05507797 -0.07625618 0.07961823 -0.01950165
0.31808493 -0.15927652 0.058351256 0.07418098 0.30747503 -0.15572847 0.08071508 0.29215932
-0.3366982 -0.054660864 -0.07799359 0.04559631 0.020366985 0.17168137 -0.1594191 0.21106137
0.07380119 -0.06086628 0.15988462 0.021955516 0.17753203 -0.043471348 0.04193678 0.089499965
0.1723426 -0.057286005 0.021495815 0.012045062 0.037787706 -0.04777953 -0.01571049 0.03932553
-0.11877726 -0.023203615 0.101855315 0.07228756 -0.21737374 0.10088333 0.028419899 -0.039292805
00000000: ba16 993d f75b 3bbd c1cb 163e 0d39 f4bc
00000010: 538e 953d a2f0 8b3d 1429 493d 8781 3cbd
00000020: a954 e93d bd71 4cbd 4444 973d 169e adbb
00000030: 0b3e 03be 19e2 bd3d a1a6 54bb 4134 dcbc
00000040: a5d6 b23d 70d8 97bd 887b 6c3d c9ae 90bd
00000050: f394 8cbd f022 a13e ba57 bb3d 8c26 683d
00000060: b883 26bd da31 8b3d e88c e43c b477 60bd
00000070: e657 84be 8fd0 413e ee24 183d 8850 173c
00000080: d8c6 053e 3198 b43e 7ae9 95bc f86a 41bd
00000090: 184c f93d cc73 943d eee3 443d 0cf3 063e
000000a0: 1250 3a3e dd2a 323e ca14 b03d 723f 9a3d
000000b0: 2602 8e3d 30ca 0f3c 388e d63d b6e8 8e3c
000000c0: 30ae e5bd ad17 353d 1516 17bd 6cf6 f23c
000000d0: d86a 593d 1d72 15be 6d4b b8bb 0ef0 95bd
000000e0: d30b fb3d 698d 843d 701b e83d a49d b9bc
000000f0: b8f2 333e 6511 84bd b166 0c3d 1b23 1d3e
00000100: 9fb6 ed3d 70f2 b73d 4717 0f3e 77d1 abbd
00000110: 43a5 d33d 0cdb be3d 5d3b 61bd ca43 8f3c
00000120: e91d 563d 63ef ee3d 1eef 12be 6d9e 4e3e
00000130: b94a fabd c5d0 9b3e 717c c43c 863e c1bd
00000140: 7083 6fbe 5ebb 903d c134 afbe eac8 cd3b
00000150: bb32 783e 1f1d b9bd 82d2 b73d bacc 68be
00000160: 613c 603e 2dd0 a2be d1a9 cabc 00ae f4b9
00000170: 544f 3ebd cf25 4bbd 58d6 25be 717d 1dbe
00000180: 002c f83d 8b20 943d 6763 20be 8525 1b3e
00000190: 8782 7d3d 2cc2 02be 9a58 0c3e 9039 7d3d
000001a0: 9d68 1fbe c83e c8bd 57bf 863c 32a8 23bd
000001b0: 4259 b2bd cc6c 04be d85c e8bc d86a 29be
000001c0: 02c0 323e 1c82 aa3e 45ac b2bc fcd7 a1bd
000001d0: b075 2b3e 6810 74be 95fc 9cbd be4d 6e3e
000001e0: cae5 8bbe b869 9d3e 5ac9 b5be 05a4 f9bc
000001f0: 44d0 99be 8305 e63d 5ad8 f83c 0476 43be
00000200: c9cb 863d 842b 0fbd 1c04 8abe 3148 c83d
00000210: 269b 98bd edfd c2bc 8fed 9b3c f071 eb3d
00000220: 1794 26bd 90a5 ccbd c191 5bbd 0733 03be
00000230: 4323 3bbd 4f6b ccbd 5af9 f43c c16a a73d
00000240: 8f38 e23d 0ca8 293e 4570 05be f004 ba3e
00000250: ca85 3cbd c950 81bc 2749 08be 6daa 64be
00000260: bfa4 133e de9c d8be 2afc aebd adcd 6b3d
00000270: 7f8c 0ebe 5c9a 5a3e 977a 673e 4948 393e
00000280: 8ba3 513e 553a 78be 3bd3 bcbd ef76 f5bc
00000290: 50ce 79bd cb90 7b3d b75a 75bd 7474 1abd
000002a0: cc93 05b9 115d c13d 858e b23d 18f0 39be
000002b0: b4d6 0cbe cdda 0f3e dca1 b23d f1d5 a6bc
000002c0: d3b4 4c3d 18c4 8b3d c764 9bbd b208 ccbd
000002d0: aba4 123e b212 213d ad82 90bb 871e c23d
000002e0: 78e2 bebe e2f1 9fbe 670f dbbd 4d04 f33d
000002f0: 7241 5abe 1c1e d1b9 476c ff3c 7928 0a3e
00000300: 428a 053e 60f3 833d 3665 423d 07f6 08bc
00000310: 717e 8fbd f018 a0bd fe76 c43d 62d3 b83d
00000320: 2ed2 053e 5423 fabc 5a6c 843d 3df1 8fbd
00000330: db10 fe3d 7291 8f3e c06b 053e 8dbd 663e
00000340: 4b74 9bbd c111 873d e5d4 c6be edfc 3ebe
00000350: 7099 61bd 332c 9cbd e20e a33d edc1 9fbc
00000360: 07dc a23e 6219 23be ba01 6f3d 33ec 973d
00000370: 5e6d 9d3e 4977 1fbe f34d a53d e895 953e
00000380: b563 acbe 12e4 5fbd 1abb 9fbd 32c3 3a3d
00000390: aad8 a63c 3ecd 2f3e c33e 23be 7920 583e
000003a0: 1425 973d ec4e 79bd cbb8 233e 0edc b33c
000003b0: f5ca 353e 030f 32bd e7c5 2b3d c24b b73d
000003c0: 947a 303e bba4 6abd fe17 b03c a758 453c
000003d0: 48c7 1a3d 78b4 43bd 49b3 80bc cf13 213d
000003e0: 7e41 f3bd 8215 bebc 8599 d03d 800b 943d
000003f0: 3997 5ebe eb9b ce3d d9d0 e83c 7ef1 20bd

adv_fc1.bias f4 [64]
0.07221476 -0.14302677 0.04249292 -0.085314944 -0.020086091 0.0025623692 0.064216554 0.0498975
0.0057642795 0.07071544 -0.14037673 0.021416957 -0.17717771 0.056323804 0.06497763 0.012349212
-0.12937294 -0.10743682 0.0036122908 -0.19098029 0.066713326 0.01660382 -0.11706126 -0.17703769
-0.00066057895 0.008499528 -0.14977233 -0.2049412 0.0043587377 -0.025332911 0.088469364 0.10568994
-0.15834785 0.086389124 0.045665268 -0.12653428 0.003107263 -0.029562578 0.1224964 0.11995894
0.094019726 0.06605207 -0.012257337 -0.14740106 0.03772293 -0.041504245 -0.00023742238 -0.04939965
0.059537195 0.07402609 0.14239195 0.10357316 0.07092638 -0.088627614 -0.00081764755 -0.13861705
-0.0005841613 -0.15474373 -0.0860675 0.103485465 0.12130371 -0.07647693 -0.08243264 0.12998201
00000000: 55e5 933d 9c75 12be 0e0d 2e3d 9ab9 aebd
00000010: 968b a4bc 6ced 273b f883 833d 5261 4c3d
00000020: 48e2 bc3b 42d3 903d ebbe 0fbe 9d72 af3c
00000030: 136e 35be cab3 663d fe12 853d 5954 4a3c
00000040: 577a 04be d607 dcbd 2fbc 6c3b 5690 43be
00000050: ffa0 883d bc04 883c d0bd efbd 5e49 35be
00000060: b42a 2dba 9b41 0b3c eb5d 19be 1bdc 51be
00000070: bed3 8e3b f786 cfbc 6d2f b53d f873 d83d
00000080: f025 22be c8ec b03d 810b 3b3d 3492 01be
00000090: 39a3 4b3b 382d f2bc 64df fa3d 08ad f53d
000000a0: 6a8d c03d 4f46 873d ffd2 48bc 4ef0 16be
000000b0: 5c83 1a3d 5b00 2abd 96f4 78b9 4a57 4abd
000000c0: 46dd 733d fe9a 973d 32cf 113e 2a1e d43d
000000d0: da41 913d 6582 b5bd 6657 56ba a1f1 0dbe
000000e0: 6722 19ba 2475 1ebe 2844 b0bd 30f0 d33d
000000f0: 146e f83d f09f 9cbd 72d2 a8bd 011a 053e

adv_fc2.weight f4 [4, 64]
0.024081346 -0.10569931 -0.05661228 -0.09014614 0.011473548 0.013426312 0.020649081 0.071196705
-0.20666909 0.27413806 0.014962329 0.3523932 -0.050645288 0.02196749 -0.23350745 0.19415727
-0.09297755 -0.019880548 -0.1061261 -0.10017596 0.12180803 -0.021459531 -0.09796877 -0.047716133
0.097549364 -0.31960523 -0.1907964 -0.044841066 0.27041018 -0.11208955 0.11045495 -0.44466642
-0.3539159 0.02939337 0.058796745 -0.12499503 -0.040785644 0.1438842 -0.08295789 0.041720558
-0.07717301 -0.4474509 0.07865517 -0.031556603 -0.1935357 0.28450087 0.09800846 -0.18684651
0.14417227 0.11101388 -0.08964477 0.22369845 -0.20059663 -0.07622357 0.08135929 0.03890657
0.29723147 0.015762627 -0.09506616 -0.23846018 -0.33698997 0.39018342 -0.029488245 -0.047843847
0.10641451 -0.11071628 0.092436925 -0.069478266 -0.04210685 -0.24689876 0.06907305 0.06348813
0.13848294 0.11466148 0.044791594 0.07698758 0.093950324 0.017868455 0.121911146 0.118040025
-0.12082141 -0.008042857 0.10463259 0.6662612 -0.08106048 0.020170571 0.29993892 0.2992599
0.18443388 0.014430818 -0.36820644 0.42719135 -0.09954278 0.09595121 -0.10879121 -0.07735752
0.16696475 0.11939134 0.22905847 -0.07332879 -0.16288228 0.16157004 0.25169808 0.111382365
-0.1528163 0.18772376 0.38009673 0.11065451 -0.038606163 0.23320565 0.0015623241 0.16941361
-0.12076992 0.22725455 -0.12536258 0.116711035 0.0870981 0.6108834 -0.019128153 -0.12383837
0.25255728 -0.22763497 0.14177936 0.0667302 -0.098878436 -0.44440594 -0.015354807 0.1471907
-0.087467626 0.28592324 0.08914564 0.20264235 0.085984364 -0.09954673 0.090375684 0.144023
-0.1339328 -0.15386541 0.09992877 0.23935682 0.0037236996 -0.12673679 -0.113180585 -0.09522819
-0.08854174 -0.091615155 0.37520468 -0.25149226 0.13434705 0.16005978 -0.5171731 -0.4153287
-0.10559444 0.189011 0.43794557 -0.33456883 0.26566368 -0.04987818 0.14206024 0.29172346
-0.3595002 -0.0233965 0.051540423 -0.09370521 0.1530649 0.53782755 0.21276571 0.017231649
0.022130955 0.028188901 -0.24619737 -0.4774144 0.21265516 0.30318084 -0.30084857 -0.17541143
0.0908769 -0.16901001 0.064131774 -0.26305887 -0.083890006 -0.3121454 -0.08423154 0.059480473
-0.20593563 -0.3888555 0.2584752 0.035895515 0.038484626 0.16216052 0.12849146 -0.16140763
-0.06284348 0.18328457 -0.08499506 -0.115945764 -0.4102415 -0.04466496 -0.12877342 0.040194206
-0.35264507 0.04948684 -0.13759355 -0.22754247 -0.10135272 0.10362046 -0.08934221 -0.16374946
0.19019227 -0.122059815 -0.24037197 -0.20377962 -0.049432322 0.30370212 -0.03687034 0.17395139
-0.10692263 0.14226565 0.3616574 -0.12332789 0.035455167 0.1869032 0.08609801 0.031578086
0.018093133 -0.009751245 -0.120846026 0.03520812 0.32533318 0.054727577 0.28846398 -0.12578136
0.14503162 0.26877585 -0.3397533 0.035122953 0.24186343 -0.12452748 0.3164993 0.3029076
0.14265804 0.24259147 -0.19160159 -0.2149248 -0.1141183 -0.3305586 0.40296337 0.068101086
-0.0205599 0.1416621 -0.41780287 0.16737819 -0.11202436 -0.067827955 -0.22761399 -0.0017761289
00000000: 3e46 c53c e178 d8bd 47e2 67bd 8a9e b8bd
00000010: 8cfb 3b3c 09fa 5b3c 4328 a93c 94cf 913d
00000020: 10a1 53be d35b 8c3e 8e24 753c e26c b43e
00000030: 6f71 4fbd 2af5 b33c 941c 6fbe 2ad1 463e
00000040: 046b bebd 88dc a2bc a458 d9bd 0e29 cdbd
00000050: 7d76 f93d e6cb afbc daa3 c8bd fe71 43bd
00000060: f6c7 c73d 4ca3 a3be 2260 43be 44ab 37bd
00000070: 3473 8a3e 358f e5bd 3436 e23d 51ab e3be
00000080: 7734 b5be 5dca f03c dbd4 703d 65fd ffbd
00000090: d90e 27bd 6156 133e d4e5 a9bd 2de3 2a3d
000000a0: e20c 9ebd 4918 e5be f615 a13d 7f41 01bd
000000b0: 392e 46be 19aa 913e a9b8 c83d b154 3fbe
000000c0: e5a1 133e 3f5b e33d ad97 b7bd 3511 653e
000000d0: 3469 4dbe 1a1b 9cbd b39f a63d 7f5c 1f3d
000000e0: b92e 983e a020 813c 0cb2 c2bd e82e 74be
000000f0: f389 acbe 1fc6 c73e 5591 f1bc e9f7 43bd
00000100: daef d93d 38bf e2bd 924f bd3d 9f4a 8ebd
00000110: 3b78 2cbd 07d3 7cbe 2c76 8d3d 1106 823d
00000120: 79ce 0d3e a3d3 ea3d 6477 373d aaab 9d3d
00000130: 0769 c03d de60 923c 8dac f93d f8be f13d
00000140: 3771 f7bd 30c6 03bc 9d49 d63d 1890 2a3f
00000150: 0903 a6bd c13c a53c 9891 993e 9838 993e
00000160: 3cdc 3c3e 3d6f 6c3c 8e85 bcbe d3b8 da3e
00000170: 16dd cbbd 1182 c43d edcd debd 9f6d 9ebd
00000180: cff8 2a3e 7283 f43d 4e8e 6a3e 682d 96bd
00000190: 9dca 26be 9e72 253e 92de 803e 701c e43d
000001a0: e07b 1cbe a83a 403e 0a9c c23e d59e e23d
000001b0: 7f21 1ebd 76cd 6e3e e6c6 cc3a c37a 2d3e
000001c0: 3856 f7bd 6bb5 683e 0c5f 00be 3206 ef3d
000001d0: 7d60 b23d db62 1c3f a5b2 9cbc f99e fdbd
000001e0: 304f 813e 2419 69be 9c2e 113e d8a9 883d
000001f0: c780 cabd 2d89 e3be ba92 7bbc 29b9 163e
00000200: 3a22 b3bd 8864 923e fd91 b63d 7a81 4f3e
00000210: 9218 b03d 28df cbbd e316 b93d c47a 133e
00000220: ae25 09be e58e 1dbe 74a7 cc3d f419 753e
00000230: 5009 743b 4ac7 01be 39cb e7bd ff06 c3bd
00000240: 5f55 b5bd baa0 bbbd d41a c03e 98c3 80be
00000250: 4692 093e b6e6 233e 7565 04bf f7a5 d4be
00000260: e641 d8bd 198c 413e 673a e03e 9b4c abbe
00000270: 1205 883e 104d 4cbd 3d78 113e c75c 953e
00000280: 6910 b8be 04aa bfbc 0d1c 533d 84e8 bfbd
00000290: 0cbd 1c3e 11af 093f 41df 593e 6329 8d3c
000002a0: fa4b b53c 69ec e63c 2a1b 7cbe a96f f4be
000002b0: 46c2 593e 853a 9b3e d308 9abe 0e9f 33be
000002c0: ab1d ba3d f610 2dbe 8557 833d a7af 86be
000002d0: 86ce abbd 86d1 9fbe 9681 acbd cca1 733d
000002e0: cae0 52be 1118 c7be dd56 843e 2d07 133d
000002f0: 0ea2 1d3d 680d 263e 4493 033e 0b48 25be
00000300: 15b4 80bd f3ae 3b3e e411 aebd f974 edbd
00000310: 2d0b d2be 9bf2 36bd 2edd 03be aea2 243d
00000320: e58d b4be b6b2 4a3d 53e5 0cbe e500 69be
00000330: 0492 cfbd f736 d43d 0cf9 b6bd f0ad 27be
00000340: c3c1 423e 7ffa f9bd 1224 76be 9bab 50be
00000350: 8c79 4abd d87e 9b3e 5b05 17bd 5020 323e
00000360: 40fa dabd 16ae 113e 292b b93e 5593 fcbd
00000370: 7039 113d 8d63 3f3e 2754 b03d 0658 013d
00000380: 0d38 943c b0c3 1fbc 1f7e f7bd 6436 103d
00000390: 1292 a63e 062a 603d 8db1 933e d4cc 00be
000003a0: 2b83 143e fd9c 893e 25f4 adbe 16dd 0f3d
000003b0: 0cab 773e 4308 ffbd 320c a23e b416 9b3e
000003c0: f314 123e e669 783e 3533 44be 3f15 5cbe
000003d0: dbb6 e9bd fa3e a9be 3751 ce3e 9578 8b3d
000003e0: 3c6d a8bc df0f 113e 42ea d5be 3065 2b3e
000003f0: 076d e5bd 62e9 8abd a413 69be ffcc e8ba

adv_fc2.bias f4 [4]
0.13010988 -0.055066258 -0.011130125 0.0372847
00000000: 863b 053e 288d 61bd 215b 36bc d7b7 183d

val_fc1.weight f4 [64, 64]
0.014341968 -0.122466564 0.07119052 -0.14117235 -0.018673364 0.019630339 -0.20353381 -0.061436407
-0.059565745 0.034613434 -0.11707137 -0.14189689 0.09252674 0.044436302 0.019155368 -0.06305793
-0.05023408 0.042575806 -0.06938042 0.27763692 -0.055131864 0.079572275 0.010619894 -0.074415185
0.010785611 -0.18813384 -0.05758292 0.1105618 0.0642534 -0.025801534 -0.09058181 0.019128919
0.08935772 0.053432893 -0.1375724 0.057740618 0.008623496 0.099796996 0.010944003 -0.1494795
-0.110656604 -0.013642073 0.12643483 0.0077622556 0.11136814 -0.0060486267 0.047458142 -0.1811549
-0.05998233 -0.12233199 0.06156689 0.03866549 0.020233586 -0.26719773 0.034783795 -0.074474834
-0.15478061 -0.12559524 -0.048205733 -0.1712456 -0.10471873 0.094397165 0.029682629 0.0099663
-0.06664543 -0.033948287 0.25602418 -0.014781674 -0.19124904 0.14521106 0.19698128 0.1642373
-0.16486782 0.13651054 0.0011763527 -0.41451883 -0.001615185 -0.12824027 0.1269801 0.06711871
-0.072112754 -0.09553014 0.042938244 -0.10421408 0.04313093 -0.018751148 0.046195284 0.05653546
0.004810871 -0.43183705 -0.09692601 0.11557333 0.018902961 -0.11199675 0.14653805 -0.10878063
0.26880684 -0.23467517 -0.36984098 0.2647548 -0.17887184 -0.461089 0.17738122 0.08996542
-0.2578796 0.01900138 0.038607087 -0.044181522 -0.099221334 0.34773406 -0.03322683 0.06647568
0.21577892 0.050665256 -0.12537448 0.02370347 -0.16062652 -0.16277194 0.09051553 -0.042880587
0.17632207 -0.15852724 -0.21976921 -0.08985068 0.09484294 -0.06832376 -0.08164169 -0.09950793
-0.23237394 0.011755377 -0.074319124 0.012081111 0.10766626 0.117981404 0.037347227 0.12087339
-0.099920094 -0.34422788 -0.20628299 -0.3355641 -0.11279209 0.11781058 0.05663215 -0.44313186
0.15003729 0.016054908 0.18337922 0.22217885 -0.08527966 -0.07812837 0.04898627 0.0654621
0.07324778 0.16719365 0.18268654 0.041359827 -0.22414252 -0.029043408 -0.022571925 -0.26219317
0.07437516 -0.22027084 -0.20814912 0.00073775323 0.03181069 -0.11183991 0.01721363 -0.014094008
-0.14337422 -0.10335923 0.019868549 0.10648905 -0.31268942 0.1832831 -0.013716622 -0.42843878
-0.31703022 0.017972529 -0.048351374 0.025131997 -0.23009843 -0.045703422 -0.044793196 -0.26986358
-0.09147635 0.005412142 -0.2092578 0.16265972 0.009278018 -0.32148317 -0.06951129 0.049370002
-0.07454978 0.11431122 -0.06459646 0.05754145 -0.07174257 0.0641422 0.00585201 -0.0085714
-0.09145044 -0.05903761 -0.11881313 -0.08540088 0.0470023 -0.0014787316 0.014623409 -0.08344862
0.06599158 -0.08792671 -0.022591323 -0.11996363 -0.02013677 0.0771794 -0.008878738 0.03427331
0.07713692 -0.118387625 0.0065012625 -0.1119654 -0.063558355 -0.015780903 -0.09929033 -0.12673445
0.045009878 -0.02207927 -0.08118082 -0.11847836 0.08366228 -0.020933434 0.06298967 -0.10942778
-0.09333563 -0.035279293 0.001322097 -0.12324847 -0.01419805 -0.06520511 -0.107087255 0.011032745
0.015086408 -0.074884474 -0.016999094 -0.048632354 -0.05990953 0.09984679 -0.048408583 0.061404824
0.009521161 0.01840204 0.09059651 0.06960246 0.060838733 -0.026293837 -0.018984154 0.120367356
00000000: 93fa 6a3c c0cf fabd 56cc 913d 7c8f 10be
00000010: e2f8 98bc cecf a03c 2b6b 50be bea4 7bbd
00000020: 36fb 73bd d1c6 0d3d 1dc3 efbd 6b4d 11be
00000030: a97e bd3d d702 363d b8eb 9c3c 8424 81bd
00000040: 40c2 4dbd f863 2e3d 5217 8ebd 6d26 8e3e
00000050: f3d1 61bd caf6 a23d 10ff 2d3c fd66 98bd
00000060: 22b6 303c 28a6 40be 11dc 6bbd 3a6e e23d
00000070: 4997 833d bd5d d3bc f582 b9bd 40b4 9c3c
00000080: 2e01 b73d 73dc 5a3d c7df 0cbe 6d81 6c3d
00000090: 9049 0d3c 5e62 cc3d 7a4e 333c 2711 19be
000000a0: ee9f e2bd 0083 5fbc 2278 013e 855a fe3b
000000b0: fb14 e43d 8f33 c6bb 7863 423d ac80 39be
000000c0: 08b0 75bd 3289 fabd 902d 7c3d b45f 1e3d
000000d0: e8c0 a53c 24ce 88be 7479 0e3d 4386 98bd
000000e0: cf7e 1ebe 0a9c 00be 6073 45bd 025b 2fbe
000000f0: c676 d6bd 4d53 c13d fc28 f33c b149 233c
00000100: 667d 88bd 5c0d 0bbd 9a15 833e d62e 72bc
00000110: cad6 43be 35b2 143e 76b5 493e d32d 283e
00000120: 1cd3 28be 6bc9 0b3e d92f 9a3a d03b d4be
00000130: 9eb4 d3ba 6b51 03be 1207 023e 8975 893d
00000140: daaf 93bd 4ea5 c3bd 03e0 2f3d 316e d5bd
00000150: 0faa 303d 029c 99bc 4437 3d3d ba91 673d
00000160: 83a4 9d3b bf19 ddbe 2581 c6bd b6b1 ec3d
00000170: 62da 9a3c 8d5e e5bd 120e 163e 61c8 debd
00000180: 0da1 893e b04e 70be cc5b bdbe f18d 873e
00000190: 2e2a 37be db13 ecbe 6ca3 353e ca3f b83d
000001a0: cc08 84be c8a8 9b3c 7722 1e3d aff7 34bd
000001b0: 8e34 cbbd 330a b23e db18 08bd 6724 883d
000001c0: 26f5 5c3e 5f86 4f3d 2b62 00be c82d c23c
000001d0: 477b 24be b0ad 26be 3560 b93d 8ea3 2fbd
000001e0: c68d 343e f754 22be 2e0b 61be a203 b8bd
000001f0: 043d c23d 54ed 8bbd c233 a7bd d0ca cbbd
00000200: 6ff3 6dbe a099 403c a034 98bd daef 453c
00000210: 2180 dc3d 3ca0 f13d 68f9 183d 788c f73d
00000220: e8a2 ccbd a33e b0be d93b 53be 0fcf abbe
00000230: 8aff e6bd ac46 f13d 1df7 673d 2ee2 e2be
00000240: 60a3 193e 9585 833c c3c7 3b3e da82 633e
00000250: 1aa7 aebd c401 a0bd d4a5 483d fe10 863d
00000260: ef02 963d d034 2b3e 2e12 3b3e ec68 293d
00000270: 9e85 65be 71ec edbc c2e8 b8bc 2f3e 86be
00000280: 0152 983d ae8e 61be 0b25 55be c865 413a
00000290: ed4b 023d 530c e5bd 9903 8d3c 8eea 66bc
000002a0: b1d0 12be 01ae d3bd 5ec3 a23c ee16 da3d
000002b0: d418 a0be 91ae 3b3e afbb 60bc 545c dbbe
000002c0: c951 a2be 203b 933c 170c 46bd 9ee1 cd3c
000002d0: ec9e 6bbe 8333 3bbd 1279 37bd 8f2b 8abe
000002e0: f457 bbbd 5658 b13b ad47 56be 4590 263e
000002f0: d402 183c 7199 a4be ef5b 8ebd 3338 4a3d
00000300: 8ead 98bd 001c ea3d 264b 84bd 95b0 6b3d
00000310: c5ed 92bd fc5c 833d 38c2 bf3b 0f6f 0cbc
00000320: 5e4a bbbd 6cd1 71bd 4c54 f3bd a8e6 aebd
00000330: 7c85 403d 00d2 c1ba 0697 6f3c 1ce7 aabd
00000340: 9826 873d eb12 b4bd 7011 b9bc 7eaf f5bd
00000350: def5 a4bc 3c10 9e3d 2078 11bc 2c62 0c3d
00000360: f6f9 9d3d 3675 f2bd 8b08 d53b 1e4e e5bd
00000370: e22a 82bd f446 81bc bb58 cbbd adc6 01be
00000380: 475c 383d 96df b4bc 2142 a6bd c8a4 f2bd
00000390: 2157 ab3d 987c abbc ba00 813d ac1b e0bd
000003a0: c026 bfbd 0581 10bd 374a ad3a b269 fcbd
000003b0: f09e 68bc 428a 85bd 9050 dbbd b0c2 343c
000003c0: fb2c 773c 085d 99bd af41 8bbc b832 47bd
000003d0: b263 75bd 797c cc3d 1448 46bd a083 7b3d
000003e0: a5fe 1b3c e0bf 963c aa8a b93d bc8b 8e3d
000003f0: 0932 793d 2c66 d7bc a884 9bbc 2983 f63d

val_fc1.bias f4 [64]
-0.11000277 -0.01647559 0.062082462 -0.12721692 -0.108946405 -0.0077896956 -0.0638769 0.23721762
-0.13140343 0.27280548 0.058317166 -0.1510672 0.16142689 -0.17766419 -0.05232905 -0.028558465
0.28567448 -0.13871498 0.31466895 -0.15694512 0.03492598 0.29975787 -0.095884256 -0.11702139
-0.02600811 -0.14091834 0.20133457 -0.1221783 -0.10571706 -0.12371225 0.31140757 0.35834736
-0.03443564 0.04380064 0.016204566 0.32963884 -0.09801745 0.0744458 -0.109833285 -0.12722288
-0.12021867 -0.22436817 -0.0128936935 0.114602886 0.030042956 -0.017003907 -0.11306074 -0.13397875
-0.104002066 0.26901028 0.17672445 -0.22978505 -0.26473954 -0.15418671 0.23663194 0.010126135
-0.121020675 0.07771292 -0.03155676 0.0573239 -0.15931766 -0.05790365 -0.08590824 0.0013509254
00000000: 2249 e1bd d1f7 86bc 2e4a 7e3d 2745 02be
00000010: 4b1f dfbd b440 ffbb e4d1 82bd 2de9 723e
00000020: 9f8e 06be 29ad 8b3e fbdd 6e3d 5cb1 1abe
00000030: 174d 253e 9aed 35be fc56 56bd 71f3 e9bc
00000040: ed43 923e 4d0b 0ebe 4a1c a13e 39b6 20be
00000050: 8b0e 0f3d dd79 993e f75e c4bd e9a8 efbd
00000060: f60e d5bc e64c 10be a62a 4e3e 9e38 fabd
00000070: 3082 d8bd d95c fdbd d070 9f3e 4e79 b73e
00000080: 630c 0dbd 4d68 333d 70bf 843c 6cc6 a83e
00000090: 5fbd c8bd 0a77 983d 46f0 e0bd b746 02be
000000a0: 3535 f6bd c5c0 65be 1240 53bc ebb4 ea3d
000000b0: a51c f63c c74b 8bbc 648c e7bd ba31 09be
000000c0: 09ff d4bd b7bb 893e 41f7 343e c64c 6bbe
000000d0: f18b 87be 1fe3 1dbe a54f 723e 17e8 253c
000000e0: b0d9 f7bd f427 9f3d a941 01bd 77cc 6a3d
000000f0: 2b24 23be 612c 6dbd a9f0 afbd 8911 b13a

val_fc2.weight f4 [1, 64]
0.10918992 -0.35626593 0.18364969 -0.045760263 0.031152636 0.07650399 -0.21169159 0.258693
0.20948493 0.1337967 0.11541557 0.17933954 0.12298896 -0.3239486 0.13812985 -0.16806719
0.2182906 -0.1812365 0.17686023 -0.13850635 -0.10053977 0.14751162 -0.19987288 -0.15920892
0.21787335 0.53221035 0.18172148 -0.17937744 -0.100510955 0.18776844 0.15370654 0.22245206
-0.2771718 0.19480981 -0.2881653 0.17405419 -0.26443133 0.32936975 -0.13412419 -0.14034085
-0.17491676 -0.22672832 0.09867649 0.2773001 0.13595404 0.2081686 -0.022340147 -0.25611496
-0.19555783 0.18923599 0.11727744 -0.27232897 -0.22264169 -0.054066952 0.14794363 0.22758956
-0.2827599 0.14925055 0.32162148 -0.38539103 -0.2006637 0.000301792 -0.23267074 0.061822463
00000000: f79e df3d 7d68 b6be aa0e 3c3e 1d6f 3bbd
00000010: d033 ff3c 20ae 9c3d aec5 58be 6973 843e
00000020: 3883 563e 0102 093e 005f ec3d c9a4 373e
00000030: a3e1 fb3d 97dc a5be e971 0d3e ce19 2cbe
00000040: 9287 5f3e 1096 39be d91a 353e 9cd4 0dbe
00000050: cce7 cdbd 490d 173e 7aab 4cbe aa07 23be
00000060: 311a 5f3e f03e 083f 3215 3a3e b8ae 37be
00000070: b0d8 cdbd 5f46 403e 3f65 1d3e 79ca 633e
00000080: 76e9 8dbe 397c 473e 678a 93be 433b 323e
00000090: 8b63 87be 27a3 a83e da57 09be 83b5 0fbe
000000a0: 611d 33be 782b 68be e616 ca3d 47fa 8d3e
000000b0: 8937 0b3e 262a 553e af02 b7bc 8021 83be
000000c0: 5040 48be 14c7 413e 282f f03d b46e 8bbe
000000d0: 2ffc 63be 4f75 5dbd 897e 173e 3d0d 693e
000000e0: e8c5 90be 23d5 183e 92ab a43e f951 c5be
000000f0: c97a 4dbe d639 9e39 3d41 6ebe 8d39 7d3d
