dueling-double-dqn-model-weights.pth (torch_old, 45422 bytes, 11 tensors)

fc1.weight f4 [64, 37]
00000000: 4140 a4bd 4276 993d 85da 563c fa04 3f3d
00000010: 3567 be3d 2eb6 e73d dc00 933d 58e8 263d
00000020: 3e12 b83c 2690 3d3c c793 f6bd 84c0 383e
00000030: 0fbe 7e3d ad79 a63c 2fa1 063e 80a9 3abc
00000040: e02f 9abd 6c34 0fbd 795d a9bc 01c2 0c3e
00000050: 482a 8bbe 7c36 223e eab9 76bd 31b4 82bd
00000060: 226a 383e 2e64 803d 82ea 403e 9765 0d3e
00000070: cb8b 84be d48e 13bf e3ac d3be ff1e e13d
00000080: e4b0 333e 584c 503d 4832 843e f84b 1b3e
00000090: e995 133d e490 3d3e 8569 3f3d 79dd 883c
000000a0: 628b e73d f913 13be fc73 f53d c52c 373e
000000b0: a5ec 9d3d 996c 253e ca68 7abc 8136 e4bd
000000c0: 6715 04bc 739a 3c3c e2c0 083e 5f9a 463e
000000d0: 071a aa3d 3032 2d3c 9c4e 03be 4459 01be
000000e0: ac60 06be 98e0 eabc 8e93 3bbd efc4 b73c
000000f0: 4223 093e 9d12 2a3e fe93 a33e 92dc d0be
00000100: bc7e 4fbe ab30 86be 8c24 c3bf 760c bcbd
00000110: 5cbc a43e 5812 9a3b f771 173e b768 2b3e
00000120: 755f 333c e808 50bb c0e1 5bbe 6f5f 1a3e
00000130: 064e 9bbd 6564 723e cf2a 60bd c349 85bd
00000140: 0dd4 9b3e d10e ffbd 235d d9bc 6f70 023e
00000150: f19c e03d a952 213d b91a bdbe 94b8 8cbe
00000160: 0657 b7be 3a67 aabe b69f 5ebc 0775 aa3e
00000170: a646 1e3e ed17 c0be f503 093e f9b6 95be
00000180: cd0f 313d f00f c7be b9e8 38be d510 7f3d
00000190: ab01 71be a26d 5bbe 3aeb f4bd 818d c83e
000001a0: 3ee3 25be 7a16 173e 3e3c f93c 301d 9ebd
000001b0: 1af5 0f3e 86c7 a03c 778b 5bbc 3a85 ed3d
000001c0: 3f00 a03d af71 a53b 9bb4 85bc c0c1 86be
000001d0: ad0a 0f3e 26df 09be 9d9a a13d 4ad3 9fbd
000001e0: 5168 a33c 8b7e 293d b4d8 ecbc 7727 cb3d
000001f0: 0642 83bd e202 8dbd 1106 c73d 7723 b03d
00000200: 5bf5 c2bd d3f8 8abd dab8 3a3e 9727 e4bd
00000210: 656e d4bd 8905 613e 7c22 cbbb fb34 953e
00000220: 1b99 503e 9e40 2f3d 6478 e5bd e13d b4bd
00000230: 981c 2abf 0e1d 233e afa4 85bd e8e5 843e
00000240: b911 813d 3d37 fdbd 1821 9c3c 254d 0b3c
00000250: 9e6c 7e3e 0abd 01be 4894 0ebe 220c 5dbe
00000260: b925 12bf 795a b7bc 7773 a53c dd40 923d
00000270: 80b1 743d ff42 dc3d 61ef 523e 1e20 8c3d
00000280: 421a 30be d40a 0cbe d925 92be 1828 e23d
00000290: f6af 953d 57fe dd3d 7b39 8cbd f682 b6be
000002a0: 91ea 253c afcc 4bbe 484b d33d 2834 1b3d
000002b0: 8746 653e 9069 fcbd 2d43 b63d 0ca4 28be
000002c0: 8573 5b3d 3125 663e 83ff e7bd e464 07be
000002d0: 7d1f 2a3e 67c4 a93d 691f d93d cb55 073d
000002e0: f92a 18bd 5eed 023e f616 8abd d494 81bc
000002f0: bb79 e03d 8d8b ee3d d972 223d eaee b9be
00000300: 909c 243e e7eb 963e c2b0 153e 3cb9 273d
00000310: 11e8 c83d 62c3 9d3c 7274 ad3d 4e56 13be
00000320: e94c 973d 39a5 1b3d e94f 2e3d 00b8 253c
00000330: f23e e43d efba 403e 1c58 1a3d 6aa6 94bd
00000340: 3374 b53d b92f eabe ac0f 003e 2fbc ec3d
00000350: 9477 3dbe aa1b b9bd ad86 71be e9aa 3bbe
00000360: f3aa 543d f29d d93c 5ce4 1e3e 8715 913e
00000370: e4ef 39bd 7775 6a3c 5289 05be f278 9ebd
00000380: 230c 02bd 7d3f f23d d20d 113f 4ee9 60bd
00000390: ae0a 263d 664a 353d cb92 03be b99f 7fbe
000003a0: e133 c43d 77a1 273d db7e 25be 17c1 30bd
000003b0: eb52 0cbe d3f2 723d 9847 e23d 7c8d 093d
000003c0: cf43 2ebd 54b8 b83e 16c5 21be 2a0d 363d
000003d0: 844b 123e b52b 353d 27b9 403d 415e 29be
000003e0: e506 363e 4133 ee3d 9749 2bbd a6be c13d
000003f0: 383b 67be ff9f 093e 5413 b23d 5412 df3d
-0.08020068 0.07493259 0.013113623 0.046635605 0.09297029 0.11314045 0.07177898 0.040748924
0.022469636 0.011570012 -0.12039905 0.18042189 0.062192973 0.020321691 0.13147424 -0.011392951
-0.07528663 -0.034962103 -0.020674454 0.13745882 -0.27180696 0.15841097 -0.060235895 -0.06382025
0.18009236 0.06269108 0.18839458 0.13808285 -0.25887904 -0.57639813 -0.4134284 0.1099224
0.17547947 0.050854057 0.25819612 0.15165699 0.036031637 0.18512303 0.04673149 0.016707169
0.11305882 -0.14363088 0.11985013 0.17888172 0.07711152 0.16154708 -0.015283773 -0.11143208
-0.008061743 0.011511433 0.13354829 0.19394825 0.083057456 0.010571048 -0.12822956 -0.12631708
-0.13122815 -0.028671548 -0.045795016 0.022432772 0.13392356 0.16608663 0.31948847 -0.40793282
-0.20263189 -0.26209006 -1.5245528 -0.09182064 0.32174957 0.004701894 0.14789568 0.16739164
0.010948052 -0.003174359 -0.21472836 0.15075468 -0.07583241 0.2367111 -0.054728325 -0.065082096
0.3043522 -0.12453998 -0.026533669 0.12738203 0.10967434 0.03938547 -0.3693445 -0.27484572
-0.3580858 -0.3328188 -0.013587883 0.3329241 0.15456638 -0.37518254 0.13380416 -0.2924116
0.04322796 -0.38879347 -0.18057527 0.06227191 -0.23535793 -0.2142854 -0.119589284 0.3917046
-0.16199967 0.14754668 0.030424234 -0.07720411 0.14058343 0.01962639 -0.01339995 0.115976766
0.07812547 0.0050489525 -0.016321471 -0.26319695 0.13968916 -0.1346403 0.07890818 -0.07803972
0.019947203 0.041380446 -0.028911926 0.09919637 -0.06409077 -0.068853155 0.09717954 0.086005144
-0.09519454 -0.06785741 0.18234578 -0.11140364 -0.103726186 0.21974768 -0.006199179 0.29141983
0.20370905 0.042786233 -0.11204603 -0.08800865 -0.6644988 0.15929052 -0.065255515 0.25956655
0.063022085 -0.123640515 0.01905875 0.008502279 0.24846122 -0.12669769 -0.13923752 -0.2158666
-0.5708881 -0.022382008 0.02019666 0.07141278 0.05973959 0.10754966 0.20599128 0.06842063
-0.17197517 -0.13676006 -0.285445 0.110428035 0.073089525 0.10839527 -0.06846901 -0.3564679
0.010126726 -0.199023 0.10317093 0.037891537 0.22390185 -0.12324822 0.088995315 -0.16468829
0.053576965 0.22475125 -0.11328032 -0.1322208 0.16613574 0.08289414 0.10601694 0.033040803
-0.037150357 0.12785861 -0.06742661 -0.015818037 0.10960718 0.11647711 0.03966031 -0.3631509
0.16075349 0.29476854 0.14618209 0.040948138 0.09809888 0.019258205 0.08469476 -0.14388391
0.07387716 0.037999365 0.042556677 0.01011467 0.11144818 0.1882131 0.037681684 -0.072583035
0.08860054 -0.45739534 0.12505978 0.11559331 -0.18502647 -0.090384796 -0.23586531 -0.18326916
0.051920842 0.026564572 0.155168 0.28336737 -0.045394793 0.014310232 -0.13040665 -0.07737912
-0.031749856 0.11828516 0.56661713 -0.054909997 0.04053753 0.044260405 -0.12848966 -0.24963273
0.095802076 0.04092547 -0.16161673 -0.043152895 -0.13703506 0.059313606 0.11048812 0.033582196
-0.042545136 0.3607813 -0.15797839 0.044446148 0.1428662 0.044231135 0.047051575 -0.16539861
0.17776068 0.1163087 -0.041818228 0.094601914 -0.22581184 0.1343994 0.08695093 0.10892168

fc1.bias f4 [64]
00000000: 36fc cc3d e86f 0c3d 0895 cabd d86a b53d
00000010: ffe0 463c a814 9f3d ae2d 073e 096b 253d
00000020: 5664 7dbd 0af4 aa3d ac97 ae3c 0ded ee3c
00000030: d795 ad3d 3832 293e de04 2c3e 8fd6 2bbd
00000040: 1584 cebc a0ba b5bd 78f1 57bd ca67 f93d
00000050: feed 093e 0fd0 97bd d051 b03d 27de e63b
00000060: 647e b2bc b316 87bd 4ba8 d53d 78a9 01be
00000070: 7b30 6a3d 5a56 693e f3c8 0b3e a38a a9bc
00000080: 1d99 1a3e bd68 a3bd c4a0 87bd 7db4 8cbd
00000090: 4e2e 173e 9af3 a03d 9ce4 6b3d 1797 ed3d
000000a0: ac8d 143e 2b01 d73c 4f9b 1c3d cf38 083e
000000b0: c148 2cbd 70ab 81bb 3654 e03d e261 1ebe
000000c0: 16b3 313c 1201 cabc 1cdc 16bd a1a1 373b
000000d0: 10f5 49bc 691f 0dbe 3d05 fbbd 4a56 63be
000000e0: cc62 433e 8ea0 1fba 4e98 fbbd 112e 63be
000000f0: 4b78 76bd dba3 273d 65c4 18be cd6b 24bd
0.10009043 0.03428641 -0.09891707 0.088582695 0.012138604 0.07767612 0.13201019 0.04038528
-0.061863266 0.08347328 0.021312557 0.029165769 0.08475845 0.16523063 0.16798732 -0.041952666
-0.025209466 -0.088734865 -0.052720517 0.12177999 0.13469693 -0.07412731 0.086093545 0.0070455256
-0.021788783 -0.065961264 0.1043249 -0.12662303 0.05717514 0.22786847 0.13650875 -0.02069599
0.1509747 -0.079789616 -0.066224605 -0.06870363 0.14763758 0.07858963 0.057591066 0.11601084
0.14507169 0.026245674 0.03823405 0.13302921 -0.04206157 -0.0039572045 0.10953562 -0.15467027
0.01084592 -0.024658713 -0.036831006 0.0028019922 -0.012326494 -0.13781513 -0.122568585 -0.22200885
0.19080657 -0.0006089293 -0.12284909 -0.22185542 -0.060173314 0.04092775 -0.14918669 -0.04014187

fc2.weight f4 [64, 64]
00000000: 46db ad3c 5f6f 523e 224a 1fbe c773 bd3d
00000010: 0289 d6bc b061 c3bd 7ae7 0e3d 3296 cf3a
00000020: f857 26bd 9bc3 6f3d 9b2f 03bd 0270 c3bc
00000030: 53eb a73c 7645 ca3d 4679 793c c0af d0bd
00000040: 8b5b 913b b48c 253d 9529 c23d f6bf 57bc
00000050: fa8b 833d d0a9 d63c 7361 b13a ebcb d73c
00000060: 01aa 3e3d cef0 833e fbbd 0e3a 3ee8 a7be
00000070: aba2 053e 4aaf 263f 7a1d 05be d064 77bc
00000080: dfca bc3b fbbc babc 923b d73d 4fe5 ab3d
00000090: d0f2 8c3d a1e6 d6bd 230c 1fbd 06df 0fbd
000000a0: e46b 223d 27aa 753d 5463 a83d 9aca 59bd
000000b0: 0c69 843e dbfc 073c 092e adbd f744 383c
000000c0: eb2f bebb 00c3 dcbd 47a8 323c cb2d c0bd
000000d0: f114 bdbc 5b8a eabc b174 86bb a5b3 753d
000000e0: dd15 523e 8a23 0bbd 3016 81bc 765e 183d
000000f0: 6da1 b33d 0f3b fbbd 0ac8 c33d 7d7c 7bba
00000100: c418 103d eb07 56bd 2a3c 22bb e271 d6bd
00000110: ca72 3c3e 47c5 b33c 7055 44be a8f8 5dbe
00000120: 35a9 bb3d e5ca f8bb fdc3 073e 959c d9be
00000130: cb7b a2bc 9f0f 02bd 4872 77ba 26c5 1abe
00000140: c60b 4ebd 4f92 ea3d 389c 42be 86e9 583e
00000150: 529a ed3e 2775 38be 6c4c cbbc 7952 75be
00000160: baf9 363e e28b b1bc 4788 353d 374a a2bd
00000170: 48ad 4ebb 2a55 e9b8 806f 99bd 2957 83be
00000180: f0e0 3fbd 8cdd 55be bfd4 373d 14ad f3bd
00000190: c74a 9e3d 5784 edbd 1c52 0a3e 02a5 143e
000001a0: 2ef4 2cbc 9b11 2d3e 06f5 eabd b327 1e3e
000001b0: b8b6 71be 4b43 9ebd 44d3 823e 58c6 0d3d
000001c0: 453f da3d 25e7 95bd 55aa 64bd 5419 f6bc
000001d0: 98a6 f13d 4170 9cbd 46ae 5f3d 026c b6bd
000001e0: 353a aebd 6cc8 1b3d bd1f 26be f135 7d3c
000001f0: 159d 0e3e 9f47 55bc b70d de3b b5cd 93bd
00000200: 3517 f3bd c382 12bd b7d4 4e3e 3453 653e
00000210: 1d61 b43c 42d4 d6bd c1eb 7bbe c764 e9bb
00000220: 1543 953d 5e1e 9dbd 7a39 133e b2b6 00be
00000230: 1882 f43c 818f 603d 53b1 2e3d 08e9 953c
00000240: bc72 b93d 771e 163e 555c 483e c48d 833d
00000250: 9c81 98be d050 613d 809e c73d abe7 e4bd
00000260: 76d9 35bd 956a 5abe a6f6 aebb 022d c8bc
00000270: bf01 943e 519e 95be 7c27 873c f83c e53d
00000280: d0c9 e43e edfa 643d 5b20 c2bd b40c 9bbe
00000290: 1855 043e 3256 febd 8f8d 17be 0fa8 dabe
000002a0: 2fea d93c 71af 58bc d5e4 76be 283d 86be
000002b0: 63bf bcbd e2e5 a53d 15db a3be a2ba bfbd
000002c0: c540 cf3c 6c1b 973d a841 48be fd7a 50be
000002d0: 3e59 92bd 9ba2 ee3c 70dd 41be 127b 3c3d
000002e0: d9c8 613d 31b4 ca3e 80fe 653d 2fab 96bb
000002f0: 0b92 2ebd 2eae 483e 9a36 58bd bd32 8e3d
00000300: e6d8 883d 4955 2cbe 6f2f 46be 232b 733c
00000310: 3374 1a3d a5b4 ac3c 9c7a 333e e4d8 5dbc
00000320: 6b99 b6bd 7297 a2be e88a e43d 1da3 9dbd
00000330: 8c19 b53d 9939 51bd 03af 033e 7ada dbbd
00000340: fd8b 59be a6cb 643e f70b 173e 351b a43d
00000350: 2fe3 cdbb 0048 4b3e f324 813d 377f 263c
00000360: 4bae 77bd 8126 e7be 8c7c 86bd 52ab b9be
00000370: c2f4 fd3d 6576 3abe d130 d7bc 27d0 97bd
00000380: f3d1 843d c7b9 6c3d 952f f5be 2c72 2a3e
00000390: b99e 463e 7dbd a7be 3750 33be 1235 d1be
000003a0: eef2 7b3e 8074 ba3d b731 093d 8a8c 1cbe
000003b0: 135f 423e 12f5 e5bd bf5a 0f3b 884d 25be
000003c0: a8b5 953e d258 1c3e c202 9f3c 95fb 1ebe
000003d0: 143c 05be 4a71 37bd d50e 73be ca7e fb3d
000003e0: 2286 69be 0f36 8b3e 4801 d33d 4534 29be
000003f0: db5a 88be da5e e23c 64a0 ffbd 62f2 b3bd
0.021222722 0.20550297 -0.15555623 0.092505984 -0.026188377 -0.09540117 0.034888722 0.0015837608
-0.040611237 0.058536153 -0.032027822 -0.02385712 0.020497954 0.0987653 0.015226668 -0.10189772
0.0044359616 0.040417388 0.094805874 -0.013168326 0.06423183 0.02620402 0.001353307 0.026342353
0.046548847 0.25769657 0.00054451794 -0.32794374 0.13050334 0.6511122 -0.12999526 -0.015099719
0.005761489 -0.022795191 0.10509409 0.083933465 0.0688225 -0.10493208 -0.038829934 -0.0351248
0.039653674 0.059976723 0.0822207 -0.05317173 0.25861394 0.008300032 -0.08456046 0.011246911
-0.005804052 -0.10779381 0.010904378 -0.09383734 -0.023081275 -0.028630426 -0.004103266 0.059985776
0.20516153 -0.03396944 -0.01575765 0.03719946 0.08771024 -0.12267124 0.09559639 -0.00095934403
0.03517987 -0.052253645 -0.00247551 -0.1047094 0.18403164 0.021944655 -0.19173217 -0.21676886
0.09163133 -0.0075925463 0.13258357 -0.42502275 -0.01983442 -0.03175318 -0.00094393315 -0.15114269
-0.050304197 0.114536874 -0.19004905 0.21182832 0.464068 -0.1801344 -0.024816714 -0.23957242
0.178687 -0.021673147 0.044319417 -0.079243116 -0.003153639 -0.00011126169 -0.0749197 -0.25652435
-0.046845376 -0.20885295 0.044880625 -0.118982464 0.077291064 -0.115975074 0.13507885 0.1451607
-0.010556264 0.16901247 -0.11472516 0.15444832 -0.23604858 -0.07727679 0.25551808 0.034612983
0.10656599 -0.07319478 -0.055826504 -0.030041374 0.11799353 -0.07638598 0.05460956 -0.089073196
-0.08507196 0.038032934 -0.16223045 0.015454755 0.1392711 -0.013017564 0.0067765373 -0.0721697
-0.11869661 -0.035769235 0.20198332 0.2239502 0.022018963 -0.10489704 -0.24601652 -0.0071226093
0.072881855 -0.07671808 0.14377394 -0.12569693 0.02984719 0.054824356 0.04264958 0.018299595
0.09055087 0.14660059 0.19566472 0.06423524 -0.29786384 0.05500871 0.09747028 -0.11177
-0.04439684 -0.2132972 -0.0053394614 -0.024435524 0.28907582 -0.29222348 0.01649832 0.111932695
0.4468522 0.055903364 -0.094788276 -0.3028313 0.12923086 -0.12418784 -0.14800094 -0.42706344
0.026600925 -0.013225422 -0.2411073 -0.26218534 -0.092161916 0.08100487 -0.32003084 -0.09361769
0.02529944 0.07378277 -0.19556296 -0.20359416 -0.07145928 0.02913027 -0.18932128 0.046015806
0.055123184 0.395906 0.056150913 -0.0045980434 -0.042619746 0.19597694 -0.052786447 0.06943271
0.06681995 -0.16829409 -0.19354032 0.014841828 0.037708472 0.021082232 0.1752724 -0.01354048
-0.08915981 -0.3175617 0.11159307 -0.07697127 0.08842763 -0.05108032 0.1285973 -0.107350305
-0.21244808 0.2234331 0.14750658 0.08013002 -0.006283186 0.19851685 0.06305876 0.010162166
-0.060468953 -0.45146564 -0.06566724 -0.3626352 0.124001995 -0.18209226 -0.026268395 -0.07412749
0.06485357 0.05779436 -0.47887865 0.16645116 0.19396485 -0.32761756 -0.17511068 -0.40860802
0.24604389 0.09104252 0.033494677 -0.15287986 0.1898158 -0.11228384 0.0021874157 -0.16142857
0.29240155 0.15268257 0.019410495 -0.15525658 -0.13011199 -0.044785775 -0.23736127 0.122800425
-0.22805074 0.2718968 0.10302979 -0.16523845 -0.26631817 0.02763312 -0.12481764 -0.08786465

fc2.bias f4 [64]
00000000: 74a8 1d3d b039 093d 2a60 993d 7b3b a3bc
00000010: 4950 3f3e 1f36 aa3d b93a abbd e54d f83c
00000020: 70ba 243d 4004 963d 2979 cdbc 6248 dcbd
00000030: 6081 e0bd 18ef bdbd 3756 0f3e 2719 5e3d
00000040: a488 6c3c 0c07 16bd 01a4 20be 01ff 843d
00000050: 290b 95bc 518a 713c 02ab 173d 2114 89bd
00000060: 0d17 41bd 97ef 7fbd 9ea6 b4bd fbe7 ce3d
00000070: d92a 24bd 2c74 0dbe 40b3 0e3c 74ce 223e
00000080: 794a f1bd 0fa7 0ebe aca5 b23d fcf9 67bd
00000090: 14e7 983d 04fa 953d 3a43 84bd fff3 5abd
000000a0: 6632 7c3d ca7f acbd 30bd 823d 2eef 5abb
000000b0: b932 7f3d 757f c3bd 2805 1abd 6d11 38be
000000c0: 053f 183c e524 00bc bfcf fa3c aa34 67bc
000000d0: 175d 6bbd a365 bc3c 4bdf eb3d e09e 9a3d
000000e0: 7709 1dbe 8a2a aa3c a11d 4ebc d173 9fbd
000000f0: d654 7abd b64a 3a3d 1ef6 943d ece0 093d
0.038490728 0.03350228 0.07489045 -0.019925823 0.1868297 0.08311104 -0.0836081 0.03031058
0.040216863 0.073250294 -0.025082188 -0.107559934 -0.10962176 -0.09274119 0.13997732 0.054223206
0.014436875 -0.036627814 -0.15687563 0.06493951 -0.018193798 0.01474245 0.03702832 -0.066932924
-0.047141124 -0.06248435 -0.08820842 0.101028405 -0.040079925 -0.13813847 0.008709729 0.15899068
-0.11781783 -0.13930915 0.08723006 -0.056634888 0.0746595 0.07323077 -0.06458135 -0.05345535
0.0615715 -0.08422811 0.06383741 -0.0033406722 0.062304232 -0.09545795 -0.037602574 -0.17975397
0.009292369 -0.007821296 0.03061664 -0.014111677 -0.057461824 0.022997683 0.11517199 0.07549834
-0.15335642 0.020772237 -0.012580306 -0.07785762 -0.061116062 0.045481406 0.07273506 0.033661768

adv_fc1.weight f4 [32, 64]
00000000: 19e2 01be db68 093e e51a 2dbe c88f ccbd
00000010: c9b5 dfbd b75d 47bd 52bd 8a3e 72e8 a4bd
00000020: d2c0 28be 4dfd 2fbd 44bc 59bd 8b06 a2bd
00000030: 4fa4 17be 744b 763d 88f6 123e d74b 1e3d
00000040: c906 c7bd bf3c 243d b0eb d33c a13c b63e
00000050: abbb 1bbe a7db 60bd b90c 89be 644c 9bbd
00000060: d058 183e c009 20be ff18 e33c a023 e43e
00000070: 8310 98bd 2d94 a8bd 7281 debe 441d 9bbd
00000080: 973a edbd 3f54 cabd e62b 223d 0d55 12be
00000090: b42d f4bc def1 b2be 0df3 423d a267 abbe
000000a0: 9c81 57bd 6a71 e1bd d472 0b3e 298f 3d3e
000000b0: 9c5a 1f3d 3b89 b7bd c7a3 48bd a16c 513c
000000c0: 7a26 403d b04b 3b3d faa6 9bbe 6932 713d
000000d0: 0ed8 503e ea4d a93e f737 76ba 5f76 8e3d
000000e0: 8014 2a3e 1df1 dd3c e854 5dbd 8147 a23c
000000f0: c06a 83bc b74c 273c 9f3c 6f3e 0acf 913e
00000100: 1dc3 8ebd 143e f6bd ec08 bcbd 0fab a83d
00000110: 56ba 1c3e 517a a2bd 749c 80bd 5081 863e
00000120: 4add 0cbe 690a be3c 0d78 77bd 15c5 3dbd
00000130: f426 31be e8e7 37bd 90b0 87be c79f 993e
00000140: 38d7 4b3e ce69 ad3e b0ef 82be c8c1 0abe
00000150: 52f7 32be 4fad a8bd ddbd 20bd 6d4d cebd
00000160: 811f febd 169e 02bc 8b16 31bd cf89 733d
00000170: a663 803d 60ce ec3d 6de1 183e 4e3d 07be
00000180: 0903 b8bc 1cc4 d1bd 258f e5bd 2c8c f7bd
00000190: d605 41be 87d6 3a3d c614 3dbe 4a58 b6bb
000001a0: 77f0 a13d ee02 743d ecdf 62bd 10f4 8fbd
000001b0: 8101 9d3e c6e9 f3bd 768a f2bd f84d 90bd
000001c0: 46f4 81bb 2f22 9ebd fbe5 073e 7610 99bb
000001d0: 6ad8 99bc 1d50 e1bc 5735 103c 742c 84be
000001e0: 0021 163d 2928 573e 6deb 3d3e faa6 c3bd
000001f0: c5ee 4cbd c4a5 d7bd c8f2 abbd d7c4 953d
00000200: ed7a 573e 98bc a5bd b67f 413d 6c85 293d
00000210: 8721 e8bb e976 8b3e a2b1 7ebe ba9e febc
00000220: 89c3 503e 58f6 bb3d 5b09 d63c 24f5 313e
00000230: 9f82 653e 6877 29be 69f0 0dbd 3c6a 0dbf
00000240: 262f c8bd 0532 3a3c bb3d 82bd ffd4 003d
00000250: 6b18 0b3e 66b6 13be 71be db3d 93f0 71be
00000260: 5929 973e 73a7 09bd 97ef 2c3d b01f 0ebd
00000270: 0386 b43c f751 b6be 6596 0f3e eaed 80be
00000280: e7d0 e43d 9257 16bb 2f4b 593e bf94 1e3e
00000290: 699c 37bc 766a ab3e 34d1 09bd 571c b13e
000002a0: f7c7 60bd 7307 653e e887 c4bc 74fe adbd
000002b0: 69e1 ddbb d289 ba3e cecd 023b 070c 21bc
000002c0: c63c aabd 8267 99bd 188c 833e 5e7c 30be
000002d0: 72e3 fb3d f842 dbbc 0172 fc3d cd14 dbbd
000002e0: e21f 76bb aa16 253e 08d5 8b3d b954 9bbe
000002f0: d3ac b3bc f1f7 13be 6bb8 a2bd 834e 28be
00000300: 1c19 04bd 5cf8 c4bd c455 00be 4310 ce3d
00000310: 1ef1 8a3c 8529 703e 0145 c73d caa8 1c3e
00000320: e947 9bbd 3536 b13d f2b2 59be 5a67 cfbd
00000330: 2953 353e 2c75 de3c c3de a6bc ffae f6bd
00000340: 26e8 c73d 729c 103e 6b81 4a3e 7530 853e
00000350: c460 213d 2cef 013d c2a8 48be 47b0 4f3e
00000360: 9c5d f9bd f489 34be c544 1e3e a608 943e
00000370: 4470 bbbc 51ac 4cbe bf2c 503d c9a1 c63c
00000380: ba73 2fbd 0a9f bd39 e605 49bd cb7f 50be
00000390: b11d 5cbc e057 75be f7f1 243e fa80 5cbe
000003a0: d713 813d ccc6 9c3b c32b 37bc 4367 e23e
000003b0: 32fc 42bd a6bf 0abd 3880 dc3d 630f b83c
000003c0: e475 2a3d b05e 8cbd b7c0 06be 0b35 14bc
000003d0: d405 d33e d933 ba3e 797f 9fbd 34b6 04bd
000003e0: 5beb c3bc f67d 33bd a0a0 d93c aaa0 bdbd
000003f0: 78c1 44bd 5f4b e7bc d32d 303e 7bdb 873d
-0.12683906 0.13418905 -0.1690479 -0.099883616 -0.10923345 -0.048673358 0.27097565 -0.08052148
-0.16479805 -0.042966176 -0.05315806 -0.07911404 -0.14808773 0.06013055 0.14351857 0.038646545
-0.09718091 0.040096994 0.02586922 0.3559313 -0.15208308 -0.054896977 -0.2676752 -0.0758293
0.1487763 -0.1562872 0.02772188 0.4455843 -0.07425024 -0.08231387 -0.43458134 -0.07573941
-0.11583441 -0.0987935 0.039592646 -0.14290257 -0.02980695 -0.34950155 0.047595073 -0.33477503
-0.05261384 -0.1100796 0.13618022 0.18511643 0.03890477 -0.089617215 -0.048984315 0.012782247
0.046911694 0.045726478 -0.3040083 0.058885965 0.20394918 0.33067256 -0.00093924947 0.06956171
0.16609383 0.02709251 -0.05403605 0.019809486 -0.016042113 0.010211161 0.23362969 0.2847827
-0.06970809 -0.12023559 -0.09181389 0.08235752 0.15305457 -0.07933486 -0.06279841 0.26270533
-0.1375629 0.023198323 -0.060417224 -0.04633053 -0.17300016 -0.044898897 -0.26501894 0.30004713
0.19906318 0.33869785 -0.25573492 -0.13550484 -0.17477158 -0.08236181 -0.039243568 -0.100733615
-0.12408353 -0.007972261 -0.04323439 0.059457596 0.062690064 0.115628004 0.14929743 -0.1320698
-0.022462385 -0.10242483 -0.11208943 -0.120872825 -0.18849882 0.045614745 -0.18464956 -0.005564724
0.07907193 0.059573106 -0.05538933 -0.07028973 0.3066521 -0.11909823 -0.118428156 -0.07046121
-0.0039658872 -0.07721364 0.13271324 -0.0046711517 -0.018779952 -0.027504021 0.00880178 -0.25815165
0.036652565 0.21011414 0.18546839 -0.095533326 -0.050032396 -0.10529664 -0.08395916 0.07312935
0.21042986 -0.08092612 0.047240935 0.041387007 -0.007084075 0.2723916 -0.24872449 -0.031081546
0.2038709 0.09177846 0.026127508 0.1737867 0.22413109 -0.16549456 -0.0346531 -0.55240226
-0.09774618 0.011364465 -0.063594304 0.03145313 0.13583533 -0.14425048 0.10729683 -0.23626928
0.29523733 -0.033606958 0.04222068 -0.03469819 0.022036558 -0.3560941 0.14022215 -0.25181514
0.111726575 -0.002294038 0.21220087 0.1548643 -0.011206725 0.3347966 -0.033646777 0.34591934
-0.0548782 0.22366123 -0.023990586 -0.08495799 -0.0067712558 0.36433274 0.0019959095 -0.009829528
-0.08312373 -0.07490446 0.2569282 -0.17234942 0.12299241 -0.026765332 0.12326432 -0.10697327
-0.0037555625 0.16121927 0.06827742 -0.30338076 -0.021932995 -0.14450051 -0.07945331 -0.164362
-0.03225051 -0.09617683 -0.12532717 0.100616954 0.016960677 0.23453338 0.09729958 0.15298763
-0.07582075 0.08652917 -0.21259668 -0.101271346 0.17707504 0.027155481 -0.020369893 -0.120450966
0.09761076 0.14122179 0.19775932 0.26013532 0.039398924 0.031722233 -0.19595626 0.20282088
-0.12176058 -0.1763075 0.15455921 0.28912848 -0.02288068 -0.19987608 0.050823923 0.024247067
-0.042834975 0.00036167382 -0.04907789 -0.20361249 -0.013434813 -0.23959303 0.16107927 -0.21533576
0.06302612 0.0047844406 -0.011179867 0.44219407 -0.047603793 -0.033874176 0.10766643 0.022468274
0.041616336 -0.06853998 -0.13159452 -0.00904585 0.41215384 0.36367682 -0.07787985 -0.032400325
-0.023915937 -0.043821298 0.02656585 -0.0925916 -0.04803607 -0.028234182 0.1720498 0.066336595

adv_fc1.bias f4 [32]
00000000: 3be3 093e b765 15be 81ac fc3d 8c18 cc3d
00000010: 8751 3e3e c3d2 e0ba acb1 6b3d 9fe5 34be
00000020: 02ab f73d bfbf 113d da42 49bd 0e2d 083e
00000030: e2c0 863d 32c2 71bc 795c 1d3e 8a9a c43d
00000040: ced0 3e3e 3266 a23d 9910 72bb c222 1fbe
00000050: 17d6 3a3d 1b65 653d 058e c83d 9513 573c
00000060: 0479 783c ea25 273e 848a 10bd 9f0c 33bd
00000070: f73d f23d cf7f fbbd d48a eb3d a8e1 ba3d
0.13465588 -0.14589582 0.1233759 0.099656194 0.18585788 -0.0017152656 0.057542488 -0.17665718
0.12093164 0.035583254 -0.04913602 0.13298437 0.06579758 -0.014755772 0.15367307 0.095997885
0.1863434 0.079296485 -0.0036936163 -0.15540603 0.04561433 0.056004625 0.09792713 0.013127227
0.015165571 0.16323057 -0.03528835 -0.04371321 0.11828225 -0.12280237 0.11501089 0.09125072

adv_fc2.weight f4 [4, 32]
00000000: e637 303d 1ef8 7cbe ef47 8d3e 97a6 c7bd
00000010: 069f c9bd 96b2 483e d5f1 883e a770 15be
00000020: 9199 dabd bafc 8b3d c127 853e e45c 103e
00000030: a876 3d3e bf5c 213d c104 b7bd 5c83 c43d
00000040: 1a1a 87bc 8180 d8bd dcaf ba3d 7c59 84bc
00000050: 9f1c b5be 3a52 f83c 9e86 133e 9fc6 57bd
00000060: 6716 13bd c45b 863d 9e1a 65be 671f 6abe
00000070: 62d4 873b ccb5 543e f08f 43be 9582 e5be
00000080: b8c6 26be a33b cd3e 4fe5 8d3d 340f 62be
00000090: d736 f13d e642 b03d 30ed 133c e4af ac3d
000000a0: a80c 2cbe ca80 363e 15d4 85bd fd52 2b3f
000000b0: 68e4 cd3e cfeb b83d 350c ad3e 9bc5 b93d
000000c0: d87a f6bc 3b48 e53d 5dca 033f e20a 083c
000000d0: b20e b7be 03e6 ca3d a633 7e3e ab6b 48be
000000e0: eb64 15be ceb4 293d 7956 9c3c d5f8 97be
000000f0: d625 3d3e 777a f63d 01d9 623d 1671 22bd
00000100: e8fd 5f3d f097 3dbe 607d 11be 1af6 ae3d
00000110: b286 17be e118 2abd d09c 933c 01f8 0c3e
00000120: daff 81be 810e cd3d 20b8 cd3c a248 183f
00000130: 01cc 803d 3eec 103f 417c 573e 647f 553e
00000140: 7995 efbd cce1 933e f3aa afbd af67 733d
00000150: a277 26bd 5522 d63c 75ee 01be 2766 4dbe
00000160: 719b bc3d d232 9cbe aa92 5f3d 5a96 8fbd
00000170: 8c79 32be 58f4 85be d7c3 c63d 0644 11be
00000180: 300c 1b3e 5bf7 60bc 7454 76be 1531 443d
00000190: 9919 a0be bdc1 f4be 403a 513e 4247 03bd
000001a0: d419 77be 0e7f 493e 7b9c 563d 9a23 f3be
000001b0: 42ac 0dbe b8fb 143d 2812 f53d 4e16 183e
000001c0: 55cb b1be 1a37 8ebe eec4 7ebe e760 003e
000001d0: 8bb8 6abe 0bed a03d c21c 0f3e dc82 263f
000001e0: 5077 cabc 2af9 8f3e f157 46be 8bcf 403e
000001f0: 040f 2a3e d457 0ebe 0ee7 3e3e 46b9 bebb
0.04302206 -0.24704024 0.27593943 -0.09748571 -0.098447844 0.19599375 0.26747003 -0.14593755
-0.10673822 0.06835313 0.26006892 0.14097935 0.18502295 0.03939509 -0.089364536 0.09595367
-0.016491938 -0.10571385 0.09115574 -0.01615595 -0.353734 0.030312646 0.14406821 -0.052679654
-0.035910036 0.06560472 -0.22373435 -0.22863542 0.004145191 0.20772475 -0.19097877 -0.4482619
-0.16286743 0.40084562 0.06928503 -0.22076112 0.11778038 0.0860651 0.009028718 0.08431986
-0.16801703 0.17822567 -0.06534592 0.66923505 0.40213323 0.09029352 0.33798376 0.090708934
-0.030087873 0.111954175 0.51480657 0.008303376 -0.357534 0.099071525 0.2482439 -0.19572322
-0.14589278 0.041432194 0.019084202 -0.2968203 0.18471465 0.12035077 0.055382732 -0.03965863
0.054685503 -0.18514991 -0.14207983 0.08543034 -0.14797476 -0.041527633 0.01801911 0.13766481
-0.25390512 0.10012532 0.025112212 0.5948583 0.06288911 0.56610477 0.21043493 0.20849377
-0.116984315 0.28883207 -0.08577528 0.059425052 -0.040641434 0.026139418 -0.1268862 -0.200585
0.092093356 -0.30507523 0.05458323 -0.07011099 -0.17429179 -0.26162982 0.09705322 -0.14186105
0.15141368 -0.013730849 -0.24055654 0.04789837 -0.3126953 -0.4780406 0.20432377 -0.03205038
-0.24130946 0.19677374 0.052395325 -0.474881 -0.13835242 0.03637287 0.11966354 0.14852259
-0.34725443 -0.27776414 -0.2487981 0.12536965 -0.2292196 0.07857712 0.13975814 0.65043426
-0.024715096 0.28119785 -0.19369484 0.18829171 0.1660729 -0.13900691 0.18642828 -0.005820426

adv_fc2.bias f4 [4]
00000000: 1089 063d 6a72 0bbe fd08 95bc 2310 e3bd
0.032845557 -0.13617864 -0.018192763 -0.11087062

val_fc1.weight f4 [32, 64]
00000000: 7380 8f3e 8b7d a43e 37f1 21bd 4b5b d33d
00000010: 0e06 0f3d 8405 a93d af2c 8e3e 5d92 253e
00000020: 91c0 a93d 3f44 fdbd 4120 773d 83bf 813d
00000030: 1cb3 74be 218f f23d 9a86 0e3e a3ac 06be
00000040: 6daa 71bd f1dc 48be be5e 533e 0b73 d33e
00000050: 8b29 523e 44be 21be 8b34 513e 164e 003e
00000060: a291 09be 019d 8e3e 7a26 e5bc 3992 80bb
00000070: 0aee d93e 74c1 d5bd 0059 5c3e 5715 41bd
00000080: 8398 4b3a 21e3 94bc e846 943e 864f 8e3e
00000090: 6aa0 5bbc 3599 96bd c9ab 263e 6f6f ecbd
000000a0: c847 0e3d a8c6 883e 3d8c 1b3d b56b 1fbe
000000b0: 4a37 8f3d 60e6 e73d f3a9 b13b 47fd b13d
000000c0: 8d9c 0f3e 2e6c 9c3e c8af efbc eb0b 23be
000000d0: 8c25 02be 0e42 1fbe b86a 943d 2ab8 93bd
000000e0: 4a8d 0c3e 1f6a 013e e464 303d 1ffb 963e
000000f0: fee5 c53d eb2a b3bd c859 983e 536e 363e
00000100: 66d4 91bd 4377 d1bd d2dc 59be b1f2 edbd
00000110: e6a8 0ebc 2334 f3bc 672d 7abc bf29 333e
00000120: 316b 093e d42a 003e f8fa d9bd 6c37 a03d
00000130: 6448 853d 49c7 abbd 8de5 86bd 291e 813d
00000140: 53a5 30be d145 fd3d b3d8 5bbd 065c 873d
00000150: 46c2 0cbe 8d8a 17bd 7c8e ddbc 8f48 9dbd
00000160: 1151 a0bc f376 643d 99f9 15bd bc31 debd
00000170: bdbb a1bb dec3 60be 1abc d73d 25c9 5cbe
00000180: ae3b 81bd 41c3 37bc db92 eabd 175f b1bd
00000190: faa5 04bd ffbd 123e b46c 4abe 1cd0 333e
000001a0: 2ec2 36be 2303 3ebc 1f34 7abe f45d 8dbd
000001b0: 9276 98bd dc9a 943d 1896 cebe 6bbb 0bbb
000001c0: 5063 ab3d afac 76bd 6448 5b3e 4b3f f0bc
000001d0: 7a82 acbd ed59 18bd 1368 45bc 0f0c b2bd
000001e0: 4989 3ebd ba71 42be 6124 a4bc 45db 7c3c
000001f0: 787f 553e da06 813d 9168 c83d 55a8 85be
00000200: dbb2 be3c 806c bdbd 1168 6a3e 5cea 2b3e
00000210: c799 19bc 0ddd d1bd 166b 05be 94af 543d
00000220: 87dc 463e f77d adbe 01a4 7abd 82ac 9a3d
00000230: 4e6c 3abe 0266 3cbe 90cb bf3b 2835 66bc
00000240: af2e f53d 3bd4 723e 2ca3 3ebd 2d26 5d3d
00000250: b993 ffbc c890 dfbd 3404 3d3e 6dac 463b
00000260: cf56 cebc a9b9 6abe 7ccb 373e 3740 4b3e
00000270: e41c 903c 7f6b 05be c1d4 04be fd8e 5abe
00000280: 69a5 c53c 4703 ccbc f810 2abe 6e18 bb3c
00000290: dfe3 50be a3c2 713e ae69 46be c4ac e63d
000002a0: 3180 7b3e a2a9 ecbd 9943 4ebe 4b5c b8bd
000002b0: 76af cebc 8e1c 24bc b749 34be f1a3 a93d
000002c0: 4b1e 59bd 2a42 47bd 6e7c 16bd 98d2 8e3d
000002d0: 8ac3 163e 5058 6e3e eb1b 15be 6755 92be
000002e0: c2a5 843d 0661 b8bd 4155 163e 817d 1cbd
000002f0: 3644 373c f32e 2a3b 24df 2dbc d2ee c0bd
00000300: 5747 6c3d f3a0 333d c4b0 833c eea1 e33d
00000310: 5f12 e5bd 8956 5ebd 5df6 54bd 7cc1 c0bd
00000320: 9294 a23d cefd 68bd ba32 393a 1e60 bcbd
00000330: 2d4d f1bd 4508 573d 0733 abbd 0d50 903d
00000340: b83c 8dbd e258 b53d 14f2 7dbd b7f1 b53c
00000350: 33ac b03d d484 2abd 7551 c33d 253e 88bd
00000360: 5b1a 053e 00c3 d1bd 296b c83d bbb7 713d
00000370: 16ab e6bc ca7f 073d f86c cc3d 829a 393c
00000380: 6605 f63d cc77 553d 66cd 38bd 4367 21bd
00000390: f01c 3f3d b064 e0bd 3bf2 053d de7a 3c3d
000003a0: eb17 f9bc e8be 29bc 9186 8cbb 987c d73c
000003b0: 1555 d9bd 6295 42bd 13d5 c33d 3882 243d
000003c0: 7014 cbbd f4b4 88bd 8f1c e23c db74 abbd
000003d0: 6107 10bd 2060 5dbd 9f4e 0b3d affd 47bd
000003e0: 7c3e a0bd fc5d 973b 81b8 0e3d 510b 033e
000003f0: 545d 72bd d586 d4bc 312c 36bd 7969 603d
0.28027686 0.32127032 -0.03953668 0.10320147 0.034917884 0.08253005 0.27768466 0.16169114
0.08288682 -0.123665325 0.060333494 0.06335356 -0.2389645 0.11843706 0.13918534 -0.13151793
-0.05900042 -0.19615532 0.2064161 0.41298708 0.2052366 -0.15795237 0.204302 0.12529787
-0.13434461 0.2785416 -0.027972449 -0.003923681 0.42564422 -0.10437289 0.21518326 -0.047139492
0.00077665615 -0.01817471 0.28960347 0.27795047 -0.013404945 -0.07353441 0.16276468 -0.11544692
0.034736425 0.26714063 0.03797554 -0.1556843 0.069929674 0.113232374 0.005421871 0.08690887
0.14024563 0.30551285 -0.029258624 -0.15922515 -0.12709635 -0.15552542 0.072469175 -0.07212861
0.13725773 0.12638138 0.043064967 0.29488465 0.09663008 -0.0874842 0.29755998 0.17815523
-0.0712059 -0.102278255 -0.21275643 -0.11618555 -0.008707261 -0.029687947 -0.015269614 0.17496394
0.13419797 0.12516338 -0.106435716 0.07823071 0.06507948 -0.0838762 -0.06586752 0.06304581
-0.17250566 0.12366832 -0.053673457 0.06609349 -0.13745984 -0.036997367 -0.02704548 -0.07679855
-0.019569905 0.0557775 -0.036614988 -0.1084933 -0.00493571 -0.21949717 0.105339244 -0.21561106
-0.06310211 -0.011215986 -0.11453792 -0.08660715 -0.03238485 0.1433029 -0.1976803 0.17559856
-0.17847511 -0.011597428 -0.24433945 -0.06902686 -0.074444905 0.072560996 -0.40348887 -0.0021321427
0.08368552 -0.060223278 0.21414334 -0.029327055 -0.08423324 -0.037195135 -0.012048739 -0.08693706
-0.046517644 -0.18988696 -0.020036878 0.015433137 0.20849407 0.06300135 0.097855695 -0.2610499
0.023278644 -0.0924921 0.2289126 0.1678862 -0.009375042 -0.1024724 -0.13029131 0.051925257
0.19420062 -0.33885166 -0.061191563 0.075524345 -0.18205377 -0.18398288 0.005853124 -0.014050759
0.11971795 0.23713772 -0.04654233 0.053991485 -0.03119837 -0.10916287 0.18458635 0.0030315176
-0.025187878 -0.22922386 0.17948717 0.19848715 0.017591901 -0.13029288 -0.12971784 -0.21343608
0.024126725 -0.024903907 -0.16608036 0.022838797 -0.20399426 0.23609404 -0.19376251 0.11263421
0.2456062 -0.115557924 -0.20142974 -0.090019785 -0.02523015 -0.010016574 -0.17606245 0.082832225
-0.053007405 -0.048647083 -0.03673976 0.06973761 0.1472303 0.23275876 -0.14561431 -0.28580782
0.06476928 -0.09002881 0.1468096 -0.038205627 0.011185696 0.0025967925 -0.010612283 -0.09420551
0.057685222 0.043854665 0.0160755 0.1111487 -0.11185145 -0.054281745 -0.051992763 -0.09411904
0.07938494 -0.056882672 0.0007064749 -0.091980204 -0.11782298 0.05249812 -0.08359342 0.070465185
-0.06896347 0.08854844 -0.06199844 0.022209985 0.086265944 -0.04163058 0.09537021 -0.06652478
0.12998335 -0.102422714 0.09786064 0.05901311 -0.028157752 0.033080854 0.09981722 0.011328341
0.120127484 0.0521162 -0.04511776 -0.03940512 0.046658456 -0.109567046 0.032701712 0.046015613
-0.030406913 -0.010360457 -0.0042885025 0.026304528 -0.10611931 -0.047505744 0.09562125 0.04016325
-0.099160075 -0.06675139 0.027601508 -0.08371898 -0.035163287 -0.05404675 0.034010526 -0.048825916
-0.07824418 0.004619358 0.034843925 0.12797286 -0.059171036 -0.0259432 -0.044475738 0.054788087

val_fc1.bias f4 [32]
00000000: 34e0 87bb 51a6 673c adaf 853d 4d6a 2abe
00000010: 7f6c 66bd 18b4 f53d be43 11bd 978a 1abe
00000020: b957 8bbd 0e06 493e 1f15 9fbd b44b 3f3c
00000030: b081 b7bc 6ec8 9b3d cd7e 523b fcd2 3bbe
00000040: 52ad 233e 9bd6 fb3d fc1c ce3d 170f 2fbe
00000050: 19bb 7ebc b5d6 e2bd 4d88 32bd 9040 b73d
00000060: 0a84 4ebd 3163 1dbd f9e3 e8bd 4d19 8f3d
00000070: bc5d 14be e010 de3d 1106 21be 5da1 7f3c
-0.0041466 0.014138774 0.06527648 -0.16642113 -0.056255814 0.11997241 -0.035464995 -0.1509193
-0.06803841 0.19631216 -0.077677004 0.011675764 -0.022400707 0.07606588 0.0032119036 -0.18342203
0.15984085 0.12296792 0.10064122 -0.170956 -0.015547537 -0.11076108 -0.043587018 0.08947861
-0.05041889 -0.038424674 -0.11371607 0.069872476 -0.14488882 0.108430624 -0.1572497 0.015602437

val_fc2.weight f4 [1, 32]
00000000: c7c3 983e e29b 4fbe c5cd 2ebe 5ea7 793c
00000010: d033 81be ae51 613e 4033 3bbe 12cd a83b
00000020: 2220 04be 23c3 003f 4652 21be b83f 98be
00000030: 7d35 33be 1ebb c33e 2be5 87bd 7878 41be
00000040: daa1 b93e fd87 c13e 557f 11be afa9 7abe
00000050: 9e09 c1bd b519 283e 028a 1ebe 0ecb a43e
00000060: 4ca7 173f d195 45be 8d18 96be ddf8 923e
00000070: db28 95be c679 f73e 6cfd b8bd bbf2 4ebd
0.29836866 -0.20274308 -0.17070682 0.015237657 -0.25234842 0.22003815 -0.18281269 0.0051513994
-0.12902883 0.50297755 -0.15754041 -0.29736114 -0.17500873 0.38228697 -0.06635507 -0.18893611
0.36256295 0.37799063 -0.1420873 -0.24478792 -0.094256625 0.16416056 -0.15482333 0.32186168
0.5923965 -0.19295432 -0.29315606 0.28705493 -0.29132733 0.48335093 -0.090327114 -0.050524455
